…
dim is deprecated, use axis instead
WARNING:tensorflow:From /home/tomoharu/forvm/capsule_layers.py:384: calling norm (from tensorflow.python.ops.linalg_ops) with keep_dims is deprecated and will be removed in a future version.
Instructions for updating:
keep_dims is deprecated, use keepdims instead
__________________________________________________________________________________________________
Layer (type)                         Output Shape              Param #   Connected to             
==================================================================================================
input_1 (InputLayer)                 (None, 512, 512, 1)       0                                  
__________________________________________________________________________________________________
conv1 (Conv2D)                       (None, 512, 512, 16)      416       input_1[0][0]            
__________________________________________________________________________________________________
reshape_1 (Reshape)                  (None, 512, 512, 1, 16)   0         conv1[0][0]              
__________________________________________________________________________________________________
primarycaps (ConvCapsuleLayer)       (None, 256, 256, 2, 16)   12832     reshape_1[0][0]          
__________________________________________________________________________________________________
conv_cap_2_1 (ConvCapsuleLayer)      (None, 256, 256, 4, 16)   25664     primarycaps[0][0]        
__________________________________________________________________________________________________
conv_cap_2_2 (ConvCapsuleLayer)      (None, 128, 128, 4, 32)   51328     conv_cap_2_1[0][0]       
__________________________________________________________________________________________________
conv_cap_3_1 (ConvCapsuleLayer)      (None, 128, 128, 8, 32)   205056    conv_cap_2_2[0][0]       
__________________________________________________________________________________________________
conv_cap_3_2 (ConvCapsuleLayer)      (None, 64, 64, 8, 64)     410112    conv_cap_3_1[0][0]       
__________________________________________________________________________________________________
conv_cap_4_1 (ConvCapsuleLayer)      (None, 64, 64, 8, 32)     409856    conv_cap_3_2[0][0]       
__________________________________________________________________________________________________
deconv_cap_1_1 (DeconvCapsuleLayer)  (None, 128, 128, 8, 32)   131328    conv_cap_4_1[0][0]       
__________________________________________________________________________________________________
up_1 (Concatenate)                   (None, 128, 128, 16, 32)  0         deconv_cap_1_1[0][0]     
                                                                         conv_cap_3_1[0][0]       
__________________________________________________________________________________________________
deconv_cap_1_2 (ConvCapsuleLayer)    (None, 128, 128, 4, 32)   102528    up_1[0][0]               
__________________________________________________________________________________________________
deconv_cap_2_1 (DeconvCapsuleLayer)  (None, 256, 256, 4, 16)   32832     deconv_cap_1_2[0][0]     
__________________________________________________________________________________________________
up_2 (Concatenate)                   (None, 256, 256, 8, 16)   0         deconv_cap_2_1[0][0]     
                                                                         conv_cap_2_1[0][0]       
__________________________________________________________________________________________________
deconv_cap_2_2 (ConvCapsuleLayer)    (None, 256, 256, 4, 16)   25664     up_2[0][0]               
__________________________________________________________________________________________________
deconv_cap_3_1 (DeconvCapsuleLayer)  (None, 512, 512, 2, 16)   8224      deconv_cap_2_2[0][0]     
__________________________________________________________________________________________________
up_3 (Concatenate)                   (None, 512, 512, 3, 16)   0         deconv_cap_3_1[0][0]     
                                                                         reshape_1[0][0]          
__________________________________________________________________________________________________
seg_caps (ConvCapsuleLayer)          (None, 512, 512, 1, 16)   272       up_3[0][0]               
__________________________________________________________________________________________________
input_2 (InputLayer)                 (None, 512, 512, 1)       0                                  
__________________________________________________________________________________________________
mask_1 (Mask)                        (None, 512, 512, 1, 16)   0         seg_caps[0][0]           
                                                                         input_2[0][0]            
__________________________________________________________________________________________________
reshape_2 (Reshape)                  (None, 512, 512, 16)      0         mask_1[0][0]             
__________________________________________________________________________________________________
recon_1 (Conv2D)                     (None, 512, 512, 64)      1088      reshape_2[0][0]          
__________________________________________________________________________________________________
recon_2 (Conv2D)                     (None, 512, 512, 128)     8320      recon_1[0][0]            
__________________________________________________________________________________________________
out_seg (Length)                     (None, 512, 512, 1)       0         seg_caps[0][0]           
__________________________________________________________________________________________________
out_recon (Conv2D)                   (None, 512, 512, 1)       129       recon_2[0][0]            
==================================================================================================
Total params: 1,425,649
Trainable params: 1,425,649
Non-trainable params: 0
__________________________________________________________________________________________________
Traceback (most recent call last):
  File "main.py", line 220, in <module>
    main(arguments)
…
2019-02-12 00:44:46.951704: I tensorflow/core/common_runtime/gpu/gpu_device.cc:1115] Created TensorFlow device (/job:localhost/replica:0/task:0/device:GPU:1 with 15129 MB memory) -> physical GPU (device: 1, name: Tesla P100-PCIE-16GB, pci bus id: 0000:00:05.0, compute capability: 6.0)
__________________________________________________________________________________________________
Layer (type)                         Output Shape              Param #   Connected to             
==================================================================================================
input_1 (InputLayer)                 (None, 512, 512, 1)       0                                  
__________________________________________________________________________________________________
conv1 (Conv2D)                       (None, 512, 512, 16)      416       input_1[0][0]            
__________________________________________________________________________________________________
reshape_1 (Reshape)                  (None, 512, 512, 1, 16)   0         conv1[0][0]              
__________________________________________________________________________________________________
primarycaps (ConvCapsuleLayer)       (None, 256, 256, 2, 16)   12832     reshape_1[0][0]          
__________________________________________________________________________________________________
conv_cap_2_1 (ConvCapsuleLayer)      (None, 256, 256, 4, 16)   25664     primarycaps[0][0]        
__________________________________________________________________________________________________
conv_cap_2_2 (ConvCapsuleLayer)      (None, 128, 128, 4, 32)   51328     conv_cap_2_1[0][0]       
__________________________________________________________________________________________________
conv_cap_3_1 (ConvCapsuleLayer)      (None, 128, 128, 8, 32)   205056    conv_cap_2_2[0][0]       
__________________________________________________________________________________________________
conv_cap_3_2 (ConvCapsuleLayer)      (None, 64, 64, 8, 64)     410112    conv_cap_3_1[0][0]       
__________________________________________________________________________________________________
conv_cap_4_1 (ConvCapsuleLayer)      (None, 64, 64, 8, 32)     409856    conv_cap_3_2[0][0]       
__________________________________________________________________________________________________
deconv_cap_1_1 (DeconvCapsuleLayer)  (None, 128, 128, 8, 32)   131328    conv_cap_4_1[0][0]       
__________________________________________________________________________________________________
up_1 (Concatenate)                   (None, 128, 128, 16, 32)  0         deconv_cap_1_1[0][0]     
                                                                         conv_cap_3_1[0][0]       
__________________________________________________________________________________________________
deconv_cap_1_2 (ConvCapsuleLayer)    (None, 128, 128, 4, 32)   102528    up_1[0][0]               
__________________________________________________________________________________________________
deconv_cap_2_1 (DeconvCapsuleLayer)  (None, 256, 256, 4, 16)   32832     deconv_cap_1_2[0][0]     
__________________________________________________________________________________________________
up_2 (Concatenate)                   (None, 256, 256, 8, 16)   0         deconv_cap_2_1[0][0]     
                                                                         conv_cap_2_1[0][0]       
__________________________________________________________________________________________________
deconv_cap_2_2 (ConvCapsuleLayer)    (None, 256, 256, 4, 16)   25664     up_2[0][0]               
__________________________________________________________________________________________________
deconv_cap_3_1 (DeconvCapsuleLayer)  (None, 512, 512, 2, 16)   8224      deconv_cap_2_2[0][0]     
__________________________________________________________________________________________________
up_3 (Concatenate)                   (None, 512, 512, 3, 16)   0         deconv_cap_3_1[0][0]     
                                                                         reshape_1[0][0]          
__________________________________________________________________________________________________
seg_caps (ConvCapsuleLayer)          (None, 512, 512, 1, 16)   272       up_3[0][0]               
__________________________________________________________________________________________________
mask_2 (Mask)                        (None, 512, 512, 1, 16)   0         seg_caps[0][0]           
__________________________________________________________________________________________________
reshape_3 (Reshape)                  (None, 512, 512, 16)      0         mask_2[0][0]             
__________________________________________________________________________________________________
recon_1 (Conv2D)                     (None, 512, 512, 64)      1088      reshape_3[0][0]          
__________________________________________________________________________________________________
recon_2 (Conv2D)                     (None, 512, 512, 128)     8320      recon_1[0][0]            
__________________________________________________________________________________________________
out_seg (Length)                     (None, 512, 512, 1)       0         seg_caps[0][0]           
__________________________________________________________________________________________________
out_recon (Conv2D)                   (None, 512, 512, 1)       129       recon_2[0][0]            
==================================================================================================
Total params: 1,425,649
Trainable params: 1,425,649
Non-trainable params: 0
__________________________________________________________________________________________________
Testing... This will take some time...
1/1 [==============================] - 24s 24s/step                                                                   | 0/18 [00:00<?, ?it/s]
…
2019-02-14 03:32:49.052458: I tensorflow/core/common_runtime/gpu/gpu_device.cc:1115] Created TensorFlow device (/job:localhost/replica:0/task:0/device:GPU:0 with 15129 MB memory) -> physical GPU (device: 0, name: Tesla P100-PCIE-16GB, pci bus id: 0000:00:04.0, compute capability: 6.0)
__________________________________________________________________________________________________
Layer (type)                         Output Shape              Param #   Connected to             
==================================================================================================
input_1 (InputLayer)                 (None, 512, 512, 1)       0                                  
__________________________________________________________________________________________________
initial_conv2D (Conv2D)              (None, 512, 512, 48)      432       input_1[0][0]            
__________________________________________________________________________________________________
initial_bn (BatchNormalization)      (None, 512, 512, 48)      192       initial_conv2D[0][0]     
__________________________________________________________________________________________________
activation_1 (Activation)            (None, 512, 512, 48)      0         initial_bn[0][0]         
__________________________________________________________________________________________________
dense_0_0_bn (BatchNormalization)    (None, 512, 512, 48)      192       activation_1[0][0]       
__________________________________________________________________________________________________
activation_2 (Activation)            (None, 512, 512, 48)      0         dense_0_0_bn[0][0]       
__________________________________________________________________________________________________
dense_0_0_conv2D (Conv2D)            (None, 512, 512, 16)      6912      activation_2[0][0]       
__________________________________________________________________________________________________
dropout_1 (Dropout)                  (None, 512, 512, 16)      0         dense_0_0_conv2D[0][0]   
__________________________________________________________________________________________________
concatenate_1 (Concatenate)          (None, 512, 512, 64)      0         activation_1[0][0]       
                                                                         dropout_1[0][0]          
__________________________________________________________________________________________________
dense_0_1_bn (BatchNormalization)    (None, 512, 512, 64)      256       concatenate_1[0][0]      
__________________________________________________________________________________________________
activation_3 (Activation)            (None, 512, 512, 64)      0         dense_0_1_bn[0][0]       
__________________________________________________________________________________________________
dense_0_1_conv2D (Conv2D)            (None, 512, 512, 16)      9216      activation_3[0][0]       
__________________________________________________________________________________________________
dropout_2 (Dropout)                  (None, 512, 512, 16)      0         dense_0_1_conv2D[0][0]   
__________________________________________________________________________________________________
concatenate_2 (Concatenate)          (None, 512, 512, 80)      0         concatenate_1[0][0]      
                                                                         dropout_2[0][0]          
__________________________________________________________________________________________________
dense_0_2_bn (BatchNormalization)    (None, 512, 512, 80)      320       concatenate_2[0][0]      
__________________________________________________________________________________________________
activation_4 (Activation)            (None, 512, 512, 80)      0         dense_0_2_bn[0][0]       
__________________________________________________________________________________________________
dense_0_2_conv2D (Conv2D)            (None, 512, 512, 16)      11520     activation_4[0][0]       
__________________________________________________________________________________________________
dropout_3 (Dropout)                  (None, 512, 512, 16)      0         dense_0_2_conv2D[0][0]   
__________________________________________________________________________________________________
concatenate_3 (Concatenate)          (None, 512, 512, 96)      0         concatenate_2[0][0]      
                                                                         dropout_3[0][0]          
__________________________________________________________________________________________________
dense_0_3_bn (BatchNormalization)    (None, 512, 512, 96)      384       concatenate_3[0][0]      
__________________________________________________________________________________________________
activation_5 (Activation)            (None, 512, 512, 96)      0         dense_0_3_bn[0][0]       
__________________________________________________________________________________________________
dense_0_3_conv2D (Conv2D)            (None, 512, 512, 16)      13824     activation_5[0][0]       
__________________________________________________________________________________________________
dropout_4 (Dropout)                  (None, 512, 512, 16)      0         dense_0_3_conv2D[0][0]   
__________________________________________________________________________________________________
concatenate_4 (Concatenate)          (None, 512, 512, 112)     0         concatenate_3[0][0]      
                                                                         dropout_4[0][0]          
__________________________________________________________________________________________________
tr_0_bn (BatchNormalization)         (None, 512, 512, 112)     448       concatenate_4[0][0]      
__________________________________________________________________________________________________
activation_6 (Activation)            (None, 512, 512, 112)     0         tr_0_bn[0][0]            
__________________________________________________________________________________________________
tr_0_conv2D (Conv2D)                 (None, 512, 512, 112)     12544     activation_6[0][0]       
__________________________________________________________________________________________________
max_pooling2d_1 (MaxPooling2D)       (None, 256, 256, 112)     0         tr_0_conv2D[0][0]        
__________________________________________________________________________________________________
dense_1_0_bn (BatchNormalization)    (None, 256, 256, 112)     448       max_pooling2d_1[0][0]    
__________________________________________________________________________________________________
activation_7 (Activation)            (None, 256, 256, 112)     0         dense_1_0_bn[0][0]       
__________________________________________________________________________________________________
dense_1_0_conv2D (Conv2D)            (None, 256, 256, 16)      16128     activation_7[0][0]       
__________________________________________________________________________________________________
dropout_5 (Dropout)                  (None, 256, 256, 16)      0         dense_1_0_conv2D[0][0]   
__________________________________________________________________________________________________
concatenate_5 (Concatenate)          (None, 256, 256, 128)     0         max_pooling2d_1[0][0]    
                                                                         dropout_5[0][0]          
__________________________________________________________________________________________________
dense_1_1_bn (BatchNormalization)    (None, 256, 256, 128)     512       concatenate_5[0][0]      
__________________________________________________________________________________________________
activation_8 (Activation)            (None, 256, 256, 128)     0         dense_1_1_bn[0][0]       
__________________________________________________________________________________________________
dense_1_1_conv2D (Conv2D)            (None, 256, 256, 16)      18432     activation_8[0][0]       
__________________________________________________________________________________________________
dropout_6 (Dropout)                  (None, 256, 256, 16)      0         dense_1_1_conv2D[0][0]   
__________________________________________________________________________________________________
concatenate_6 (Concatenate)          (None, 256, 256, 144)     0         concatenate_5[0][0]      
                                                                         dropout_6[0][0]          
__________________________________________________________________________________________________
dense_1_2_bn (BatchNormalization)    (None, 256, 256, 144)     576       concatenate_6[0][0]      
__________________________________________________________________________________________________
activation_9 (Activation)            (None, 256, 256, 144)     0         dense_1_2_bn[0][0]       
__________________________________________________________________________________________________
dense_1_2_conv2D (Conv2D)            (None, 256, 256, 16)      20736     activation_9[0][0]       
__________________________________________________________________________________________________
dropout_7 (Dropout)                  (None, 256, 256, 16)      0         dense_1_2_conv2D[0][0]   
__________________________________________________________________________________________________
concatenate_7 (Concatenate)          (None, 256, 256, 160)     0         concatenate_6[0][0]      
                                                                         dropout_7[0][0]          
__________________________________________________________________________________________________
dense_1_3_bn (BatchNormalization)    (None, 256, 256, 160)     640       concatenate_7[0][0]      
__________________________________________________________________________________________________
activation_10 (Activation)           (None, 256, 256, 160)     0         dense_1_3_bn[0][0]       
__________________________________________________________________________________________________
dense_1_3_conv2D (Conv2D)            (None, 256, 256, 16)      23040     activation_10[0][0]      
__________________________________________________________________________________________________
dropout_8 (Dropout)                  (None, 256, 256, 16)      0         dense_1_3_conv2D[0][0]   
__________________________________________________________________________________________________
concatenate_8 (Concatenate)          (None, 256, 256, 176)     0         concatenate_7[0][0]      
                                                                         dropout_8[0][0]          
__________________________________________________________________________________________________
tr_1_bn (BatchNormalization)         (None, 256, 256, 176)     704       concatenate_8[0][0]      
__________________________________________________________________________________________________
activation_11 (Activation)           (None, 256, 256, 176)     0         tr_1_bn[0][0]            
__________________________________________________________________________________________________
tr_1_conv2D (Conv2D)                 (None, 256, 256, 176)     30976     activation_11[0][0]      
__________________________________________________________________________________________________
max_pooling2d_2 (MaxPooling2D)       (None, 128, 128, 176)     0         tr_1_conv2D[0][0]        
__________________________________________________________________________________________________
dense_2_0_bn (BatchNormalization)    (None, 128, 128, 176)     704       max_pooling2d_2[0][0]    
__________________________________________________________________________________________________
activation_12 (Activation)           (None, 128, 128, 176)     0         dense_2_0_bn[0][0]       
__________________________________________________________________________________________________
dense_2_0_conv2D (Conv2D)            (None, 128, 128, 16)      25344     activation_12[0][0]      
__________________________________________________________________________________________________
dropout_9 (Dropout)                  (None, 128, 128, 16)      0         dense_2_0_conv2D[0][0]   
__________________________________________________________________________________________________
concatenate_9 (Concatenate)          (None, 128, 128, 192)     0         max_pooling2d_2[0][0]    
                                                                         dropout_9[0][0]          
__________________________________________________________________________________________________
dense_2_1_bn (BatchNormalization)    (None, 128, 128, 192)     768       concatenate_9[0][0]      
__________________________________________________________________________________________________
activation_13 (Activation)           (None, 128, 128, 192)     0         dense_2_1_bn[0][0]       
__________________________________________________________________________________________________
dense_2_1_conv2D (Conv2D)            (None, 128, 128, 16)      27648     activation_13[0][0]      
__________________________________________________________________________________________________
dropout_10 (Dropout)                 (None, 128, 128, 16)      0         dense_2_1_conv2D[0][0]   
__________________________________________________________________________________________________
concatenate_10 (Concatenate)         (None, 128, 128, 208)     0         concatenate_9[0][0]      
                                                                         dropout_10[0][0]         
__________________________________________________________________________________________________
dense_2_2_bn (BatchNormalization)    (None, 128, 128, 208)     832       concatenate_10[0][0]     
__________________________________________________________________________________________________
activation_14 (Activation)           (None, 128, 128, 208)     0         dense_2_2_bn[0][0]       
__________________________________________________________________________________________________
dense_2_2_conv2D (Conv2D)            (None, 128, 128, 16)      29952     activation_14[0][0]      
__________________________________________________________________________________________________
dropout_11 (Dropout)                 (None, 128, 128, 16)      0         dense_2_2_conv2D[0][0]   
__________________________________________________________________________________________________
concatenate_11 (Concatenate)         (None, 128, 128, 224)     0         concatenate_10[0][0]     
                                                                         dropout_11[0][0]         
__________________________________________________________________________________________________
dense_2_3_bn (BatchNormalization)    (None, 128, 128, 224)     896       concatenate_11[0][0]     
__________________________________________________________________________________________________
activation_15 (Activation)           (None, 128, 128, 224)     0         dense_2_3_bn[0][0]       
__________________________________________________________________________________________________
dense_2_3_conv2D (Conv2D)            (None, 128, 128, 16)      32256     activation_15[0][0]      
__________________________________________________________________________________________________
dropout_12 (Dropout)                 (None, 128, 128, 16)      0         dense_2_3_conv2D[0][0]   
__________________________________________________________________________________________________
concatenate_12 (Concatenate)         (None, 128, 128, 240)     0         concatenate_11[0][0]     
                                                                         dropout_12[0][0]         
__________________________________________________________________________________________________
tr_2_bn (BatchNormalization)         (None, 128, 128, 240)     960       concatenate_12[0][0]     
__________________________________________________________________________________________________
activation_16 (Activation)           (None, 128, 128, 240)     0         tr_2_bn[0][0]            
__________________________________________________________________________________________________
tr_2_conv2D (Conv2D)                 (None, 128, 128, 240)     57600     activation_16[0][0]      
__________________________________________________________________________________________________
max_pooling2d_3 (MaxPooling2D)       (None, 64, 64, 240)       0         tr_2_conv2D[0][0]        
__________________________________________________________________________________________________
dense_3_0_bn (BatchNormalization)    (None, 64, 64, 240)       960       max_pooling2d_3[0][0]    
__________________________________________________________________________________________________
activation_17 (Activation)           (None, 64, 64, 240)       0         dense_3_0_bn[0][0]       
__________________________________________________________________________________________________
dense_3_0_conv2D (Conv2D)            (None, 64, 64, 16)        34560     activation_17[0][0]      
__________________________________________________________________________________________________
dropout_13 (Dropout)                 (None, 64, 64, 16)        0         dense_3_0_conv2D[0][0]   
__________________________________________________________________________________________________
concatenate_13 (Concatenate)         (None, 64, 64, 256)       0         max_pooling2d_3[0][0]    
                                                                         dropout_13[0][0]         
__________________________________________________________________________________________________
dense_3_1_bn (BatchNormalization)    (None, 64, 64, 256)       1024      concatenate_13[0][0]     
__________________________________________________________________________________________________
activation_18 (Activation)           (None, 64, 64, 256)       0         dense_3_1_bn[0][0]       
__________________________________________________________________________________________________
dense_3_1_conv2D (Conv2D)            (None, 64, 64, 16)        36864     activation_18[0][0]      
__________________________________________________________________________________________________
dropout_14 (Dropout)                 (None, 64, 64, 16)        0         dense_3_1_conv2D[0][0]   
__________________________________________________________________________________________________
concatenate_14 (Concatenate)         (None, 64, 64, 272)       0         concatenate_13[0][0]     
                                                                         dropout_14[0][0]         
__________________________________________________________________________________________________
dense_3_2_bn (BatchNormalization)    (None, 64, 64, 272)       1088      concatenate_14[0][0]     
__________________________________________________________________________________________________
activation_19 (Activation)           (None, 64, 64, 272)       0         dense_3_2_bn[0][0]       
__________________________________________________________________________________________________
dense_3_2_conv2D (Conv2D)            (None, 64, 64, 16)        39168     activation_19[0][0]      
__________________________________________________________________________________________________
dropout_15 (Dropout)                 (None, 64, 64, 16)        0         dense_3_2_conv2D[0][0]   
__________________________________________________________________________________________________
concatenate_15 (Concatenate)         (None, 64, 64, 288)       0         concatenate_14[0][0]     
                                                                         dropout_15[0][0]         
__________________________________________________________________________________________________
dense_3_3_bn (BatchNormalization)    (None, 64, 64, 288)       1152      concatenate_15[0][0]     
__________________________________________________________________________________________________
activation_20 (Activation)           (None, 64, 64, 288)       0         dense_3_3_bn[0][0]       
__________________________________________________________________________________________________
dense_3_3_conv2D (Conv2D)            (None, 64, 64, 16)        41472     activation_20[0][0]      
__________________________________________________________________________________________________
dropout_16 (Dropout)                 (None, 64, 64, 16)        0         dense_3_3_conv2D[0][0]   
__________________________________________________________________________________________________
concatenate_16 (Concatenate)         (None, 64, 64, 304)       0         concatenate_15[0][0]     
                                                                         dropout_16[0][0]         
__________________________________________________________________________________________________
tr_3_bn (BatchNormalization)         (None, 64, 64, 304)       1216      concatenate_16[0][0]     
__________________________________________________________________________________________________
activation_21 (Activation)           (None, 64, 64, 304)       0         tr_3_bn[0][0]            
__________________________________________________________________________________________________
tr_3_conv2D (Conv2D)                 (None, 64, 64, 304)       92416     activation_21[0][0]      
__________________________________________________________________________________________________
max_pooling2d_4 (MaxPooling2D)       (None, 32, 32, 304)       0         tr_3_conv2D[0][0]        
__________________________________________________________________________________________________
dense_4_0_bn (BatchNormalization)    (None, 32, 32, 304)       1216      max_pooling2d_4[0][0]    
__________________________________________________________________________________________________
activation_22 (Activation)           (None, 32, 32, 304)       0         dense_4_0_bn[0][0]       
__________________________________________________________________________________________________
dense_4_0_conv2D (Conv2D)            (None, 32, 32, 16)        43776     activation_22[0][0]      
__________________________________________________________________________________________________
dropout_17 (Dropout)                 (None, 32, 32, 16)        0         dense_4_0_conv2D[0][0]   
__________________________________________________________________________________________________
concatenate_17 (Concatenate)         (None, 32, 32, 320)       0         max_pooling2d_4[0][0]    
                                                                         dropout_17[0][0]         
__________________________________________________________________________________________________
dense_4_1_bn (BatchNormalization)    (None, 32, 32, 320)       1280      concatenate_17[0][0]     
__________________________________________________________________________________________________
activation_23 (Activation)           (None, 32, 32, 320)       0         dense_4_1_bn[0][0]       
__________________________________________________________________________________________________
dense_4_1_conv2D (Conv2D)            (None, 32, 32, 16)        46080     activation_23[0][0]      
__________________________________________________________________________________________________
dropout_18 (Dropout)                 (None, 32, 32, 16)        0         dense_4_1_conv2D[0][0]   
__________________________________________________________________________________________________
concatenate_18 (Concatenate)         (None, 32, 32, 336)       0         concatenate_17[0][0]     
                                                                         dropout_18[0][0]         
__________________________________________________________________________________________________
dense_4_2_bn (BatchNormalization)    (None, 32, 32, 336)       1344      concatenate_18[0][0]     
__________________________________________________________________________________________________
activation_24 (Activation)           (None, 32, 32, 336)       0         dense_4_2_bn[0][0]       
__________________________________________________________________________________________________
dense_4_2_conv2D (Conv2D)            (None, 32, 32, 16)        48384     activation_24[0][0]      
__________________________________________________________________________________________________
dropout_19 (Dropout)                 (None, 32, 32, 16)        0         dense_4_2_conv2D[0][0]   
__________________________________________________________________________________________________
concatenate_19 (Concatenate)         (None, 32, 32, 352)       0         concatenate_18[0][0]     
                                                                         dropout_19[0][0]         
__________________________________________________________________________________________________
dense_4_3_bn (BatchNormalization)    (None, 32, 32, 352)       1408      concatenate_19[0][0]     
__________________________________________________________________________________________________
activation_25 (Activation)           (None, 32, 32, 352)       0         dense_4_3_bn[0][0]       
__________________________________________________________________________________________________
dense_4_3_conv2D (Conv2D)            (None, 32, 32, 16)        50688     activation_25[0][0]      
__________________________________________________________________________________________________
dropout_20 (Dropout)                 (None, 32, 32, 16)        0         dense_4_3_conv2D[0][0]   
__________________________________________________________________________________________________
concatenate_20 (Concatenate)         (None, 32, 32, 368)       0         concatenate_19[0][0]     
                                                                         dropout_20[0][0]         
__________________________________________________________________________________________________
tr_4_bn (BatchNormalization)         (None, 32, 32, 368)       1472      concatenate_20[0][0]     
__________________________________________________________________________________________________
activation_26 (Activation)           (None, 32, 32, 368)       0         tr_4_bn[0][0]            
__________________________________________________________________________________________________
tr_4_conv2D (Conv2D)                 (None, 32, 32, 368)       135424    activation_26[0][0]      
__________________________________________________________________________________________________
max_pooling2d_5 (MaxPooling2D)       (None, 16, 16, 368)       0         tr_4_conv2D[0][0]        
__________________________________________________________________________________________________
dense_5_0_bn (BatchNormalization)    (None, 16, 16, 368)       1472      max_pooling2d_5[0][0]    
__________________________________________________________________________________________________
activation_27 (Activation)           (None, 16, 16, 368)       0         dense_5_0_bn[0][0]       
__________________________________________________________________________________________________
dense_5_0_conv2D (Conv2D)            (None, 16, 16, 16)        52992     activation_27[0][0]      
__________________________________________________________________________________________________
dropout_21 (Dropout)                 (None, 16, 16, 16)        0         dense_5_0_conv2D[0][0]   
__________________________________________________________________________________________________
concatenate_21 (Concatenate)         (None, 16, 16, 384)       0         max_pooling2d_5[0][0]    
                                                                         dropout_21[0][0]         
__________________________________________________________________________________________________
dense_5_1_bn (BatchNormalization)    (None, 16, 16, 384)       1536      concatenate_21[0][0]     
__________________________________________________________________________________________________
activation_28 (Activation)           (None, 16, 16, 384)       0         dense_5_1_bn[0][0]       
__________________________________________________________________________________________________
dense_5_1_conv2D (Conv2D)            (None, 16, 16, 16)        55296     activation_28[0][0]      
__________________________________________________________________________________________________
dropout_22 (Dropout)                 (None, 16, 16, 16)        0         dense_5_1_conv2D[0][0]   
__________________________________________________________________________________________________
concatenate_22 (Concatenate)         (None, 16, 16, 400)       0         concatenate_21[0][0]     
                                                                         dropout_22[0][0]         
__________________________________________________________________________________________________
dense_5_2_bn (BatchNormalization)    (None, 16, 16, 400)       1600      concatenate_22[0][0]     
__________________________________________________________________________________________________
activation_29 (Activation)           (None, 16, 16, 400)       0         dense_5_2_bn[0][0]       
__________________________________________________________________________________________________
dense_5_2_conv2D (Conv2D)            (None, 16, 16, 16)        57600     activation_29[0][0]      
__________________________________________________________________________________________________
dropout_23 (Dropout)                 (None, 16, 16, 16)        0         dense_5_2_conv2D[0][0]   
__________________________________________________________________________________________________
concatenate_23 (Concatenate)         (None, 16, 16, 416)       0         concatenate_22[0][0]     
                                                                         dropout_23[0][0]         
__________________________________________________________________________________________________
dense_5_3_bn (BatchNormalization)    (None, 16, 16, 416)       1664      concatenate_23[0][0]     
__________________________________________________________________________________________________
activation_30 (Activation)           (None, 16, 16, 416)       0         dense_5_3_bn[0][0]       
__________________________________________________________________________________________________
dense_5_3_conv2D (Conv2D)            (None, 16, 16, 16)        59904     activation_30[0][0]      
__________________________________________________________________________________________________
dropout_24 (Dropout)                 (None, 16, 16, 16)        0         dense_5_3_conv2D[0][0]   
__________________________________________________________________________________________________
concatenate_25 (Concatenate)         (None, 16, 16, 64)        0         dropout_21[0][0]         
                                                                         dropout_22[0][0]         
                                                                         dropout_23[0][0]         
                                                                         dropout_24[0][0]         
__________________________________________________________________________________________________
tr_up_0_conv2DT (Conv2DTranspose)    (None, 32, 32, 64)        36928     concatenate_25[0][0]     
__________________________________________________________________________________________________
concatenate_26 (Concatenate)         (None, 32, 32, 432)       0         tr_up_0_conv2DT[0][0]    
                                                                         concatenate_20[0][0]     
__________________________________________________________________________________________________
dense_6_0_bn (BatchNormalization)    (None, 32, 32, 432)       1728      concatenate_26[0][0]     
__________________________________________________________________________________________________
activation_31 (Activation)           (None, 32, 32, 432)       0         dense_6_0_bn[0][0]       
__________________________________________________________________________________________________
dense_6_0_conv2D (Conv2D)            (None, 32, 32, 16)        62208     activation_31[0][0]      
__________________________________________________________________________________________________
dropout_25 (Dropout)                 (None, 32, 32, 16)        0         dense_6_0_conv2D[0][0]   
__________________________________________________________________________________________________
concatenate_27 (Concatenate)         (None, 32, 32, 448)       0         concatenate_26[0][0]     
                                                                         dropout_25[0][0]         
__________________________________________________________________________________________________
dense_6_1_bn (BatchNormalization)    (None, 32, 32, 448)       1792      concatenate_27[0][0]     
__________________________________________________________________________________________________
activation_32 (Activation)           (None, 32, 32, 448)       0         dense_6_1_bn[0][0]       
__________________________________________________________________________________________________
dense_6_1_conv2D (Conv2D)            (None, 32, 32, 16)        64512     activation_32[0][0]      
__________________________________________________________________________________________________
dropout_26 (Dropout)                 (None, 32, 32, 16)        0         dense_6_1_conv2D[0][0]   
__________________________________________________________________________________________________
concatenate_28 (Concatenate)         (None, 32, 32, 464)       0         concatenate_27[0][0]     
                                                                         dropout_26[0][0]         
__________________________________________________________________________________________________
dense_6_2_bn (BatchNormalization)    (None, 32, 32, 464)       1856      concatenate_28[0][0]     
__________________________________________________________________________________________________
activation_33 (Activation)           (None, 32, 32, 464)       0         dense_6_2_bn[0][0]       
__________________________________________________________________________________________________
dense_6_2_conv2D (Conv2D)            (None, 32, 32, 16)        66816     activation_33[0][0]      
__________________________________________________________________________________________________
dropout_27 (Dropout)                 (None, 32, 32, 16)        0         dense_6_2_conv2D[0][0]   
__________________________________________________________________________________________________
concatenate_29 (Concatenate)         (None, 32, 32, 480)       0         concatenate_28[0][0]     
                                                                         dropout_27[0][0]         
__________________________________________________________________________________________________
dense_6_3_bn (BatchNormalization)    (None, 32, 32, 480)       1920      concatenate_29[0][0]     
__________________________________________________________________________________________________
activation_34 (Activation)           (None, 32, 32, 480)       0         dense_6_3_bn[0][0]       
__________________________________________________________________________________________________
dense_6_3_conv2D (Conv2D)            (None, 32, 32, 16)        69120     activation_34[0][0]      
__________________________________________________________________________________________________
dropout_28 (Dropout)                 (None, 32, 32, 16)        0         dense_6_3_conv2D[0][0]   
__________________________________________________________________________________________________
concatenate_31 (Concatenate)         (None, 32, 32, 64)        0         dropout_25[0][0]         
                                                                         dropout_26[0][0]         
                                                                         dropout_27[0][0]         
                                                                         dropout_28[0][0]         
__________________________________________________________________________________________________
tr_up_1_conv2DT (Conv2DTranspose)    (None, 64, 64, 64)        36928     concatenate_31[0][0]     
__________________________________________________________________________________________________
concatenate_32 (Concatenate)         (None, 64, 64, 368)       0         tr_up_1_conv2DT[0][0]    
                                                                         concatenate_16[0][0]     
__________________________________________________________________________________________________
dense_7_0_bn (BatchNormalization)    (None, 64, 64, 368)       1472      concatenate_32[0][0]     
__________________________________________________________________________________________________
activation_35 (Activation)           (None, 64, 64, 368)       0         dense_7_0_bn[0][0]       
__________________________________________________________________________________________________
dense_7_0_conv2D (Conv2D)            (None, 64, 64, 16)        52992     activation_35[0][0]      
__________________________________________________________________________________________________
dropout_29 (Dropout)                 (None, 64, 64, 16)        0         dense_7_0_conv2D[0][0]   
__________________________________________________________________________________________________
concatenate_33 (Concatenate)         (None, 64, 64, 384)       0         concatenate_32[0][0]     
                                                                         dropout_29[0][0]         
__________________________________________________________________________________________________
dense_7_1_bn (BatchNormalization)    (None, 64, 64, 384)       1536      concatenate_33[0][0]     
__________________________________________________________________________________________________
activation_36 (Activation)           (None, 64, 64, 384)       0         dense_7_1_bn[0][0]       
__________________________________________________________________________________________________
dense_7_1_conv2D (Conv2D)            (None, 64, 64, 16)        55296     activation_36[0][0]      
__________________________________________________________________________________________________
dropout_30 (Dropout)                 (None, 64, 64, 16)        0         dense_7_1_conv2D[0][0]   
__________________________________________________________________________________________________
concatenate_34 (Concatenate)         (None, 64, 64, 400)       0         concatenate_33[0][0]     
                                                                         dropout_30[0][0]         
__________________________________________________________________________________________________
dense_7_2_bn (BatchNormalization)    (None, 64, 64, 400)       1600      concatenate_34[0][0]     
__________________________________________________________________________________________________
activation_37 (Activation)           (None, 64, 64, 400)       0         dense_7_2_bn[0][0]       
__________________________________________________________________________________________________
dense_7_2_conv2D (Conv2D)            (None, 64, 64, 16)        57600     activation_37[0][0]      
__________________________________________________________________________________________________
dropout_31 (Dropout)                 (None, 64, 64, 16)        0         dense_7_2_conv2D[0][0]   
__________________________________________________________________________________________________
concatenate_35 (Concatenate)         (None, 64, 64, 416)       0         concatenate_34[0][0]     
                                                                         dropout_31[0][0]         
__________________________________________________________________________________________________
dense_7_3_bn (BatchNormalization)    (None, 64, 64, 416)       1664      concatenate_35[0][0]     
__________________________________________________________________________________________________
activation_38 (Activation)           (None, 64, 64, 416)       0         dense_7_3_bn[0][0]       
__________________________________________________________________________________________________
dense_7_3_conv2D (Conv2D)            (None, 64, 64, 16)        59904     activation_38[0][0]      
__________________________________________________________________________________________________
dropout_32 (Dropout)                 (None, 64, 64, 16)        0         dense_7_3_conv2D[0][0]   
__________________________________________________________________________________________________
concatenate_37 (Concatenate)         (None, 64, 64, 64)        0         dropout_29[0][0]         
                                                                         dropout_30[0][0]         
                                                                         dropout_31[0][0]         
                                                                         dropout_32[0][0]         
__________________________________________________________________________________________________
tr_up_2_conv2DT (Conv2DTranspose)    (None, 128, 128, 64)      36928     concatenate_37[0][0]     
__________________________________________________________________________________________________
concatenate_38 (Concatenate)         (None, 128, 128, 304)     0         tr_up_2_conv2DT[0][0]    
                                                                         concatenate_12[0][0]     
__________________________________________________________________________________________________
dense_8_0_bn (BatchNormalization)    (None, 128, 128, 304)     1216      concatenate_38[0][0]     
__________________________________________________________________________________________________
activation_39 (Activation)           (None, 128, 128, 304)     0         dense_8_0_bn[0][0]       
__________________________________________________________________________________________________
dense_8_0_conv2D (Conv2D)            (None, 128, 128, 16)      43776     activation_39[0][0]      
__________________________________________________________________________________________________
dropout_33 (Dropout)                 (None, 128, 128, 16)      0         dense_8_0_conv2D[0][0]   
__________________________________________________________________________________________________
concatenate_39 (Concatenate)         (None, 128, 128, 320)     0         concatenate_38[0][0]     
                                                                         dropout_33[0][0]         
__________________________________________________________________________________________________
dense_8_1_bn (BatchNormalization)    (None, 128, 128, 320)     1280      concatenate_39[0][0]     
__________________________________________________________________________________________________
activation_40 (Activation)           (None, 128, 128, 320)     0         dense_8_1_bn[0][0]       
__________________________________________________________________________________________________
dense_8_1_conv2D (Conv2D)            (None, 128, 128, 16)      46080     activation_40[0][0]      
__________________________________________________________________________________________________
dropout_34 (Dropout)                 (None, 128, 128, 16)      0         dense_8_1_conv2D[0][0]   
__________________________________________________________________________________________________
concatenate_40 (Concatenate)         (None, 128, 128, 336)     0         concatenate_39[0][0]     
                                                                         dropout_34[0][0]         
__________________________________________________________________________________________________
dense_8_2_bn (BatchNormalization)    (None, 128, 128, 336)     1344      concatenate_40[0][0]     
__________________________________________________________________________________________________
activation_41 (Activation)           (None, 128, 128, 336)     0         dense_8_2_bn[0][0]       
__________________________________________________________________________________________________
dense_8_2_conv2D (Conv2D)            (None, 128, 128, 16)      48384     activation_41[0][0]      
__________________________________________________________________________________________________
dropout_35 (Dropout)                 (None, 128, 128, 16)      0         dense_8_2_conv2D[0][0]   
__________________________________________________________________________________________________
concatenate_41 (Concatenate)         (None, 128, 128, 352)     0         concatenate_40[0][0]     
                                                                         dropout_35[0][0]         
__________________________________________________________________________________________________
dense_8_3_bn (BatchNormalization)    (None, 128, 128, 352)     1408      concatenate_41[0][0]     
__________________________________________________________________________________________________
activation_42 (Activation)           (None, 128, 128, 352)     0         dense_8_3_bn[0][0]       
__________________________________________________________________________________________________
dense_8_3_conv2D (Conv2D)            (None, 128, 128, 16)      50688     activation_42[0][0]      
__________________________________________________________________________________________________
dropout_36 (Dropout)                 (None, 128, 128, 16)      0         dense_8_3_conv2D[0][0]   
__________________________________________________________________________________________________
concatenate_43 (Concatenate)         (None, 128, 128, 64)      0         dropout_33[0][0]         
                                                                         dropout_34[0][0]         
                                                                         dropout_35[0][0]         
                                                                         dropout_36[0][0]         
__________________________________________________________________________________________________
tr_up_3_conv2DT (Conv2DTranspose)    (None, 256, 256, 64)      36928     concatenate_43[0][0]     
__________________________________________________________________________________________________
concatenate_44 (Concatenate)         (None, 256, 256, 240)     0         tr_up_3_conv2DT[0][0]    
                                                                         concatenate_8[0][0]      
__________________________________________________________________________________________________
dense_9_0_bn (BatchNormalization)    (None, 256, 256, 240)     960       concatenate_44[0][0]     
__________________________________________________________________________________________________
activation_43 (Activation)           (None, 256, 256, 240)     0         dense_9_0_bn[0][0]       
__________________________________________________________________________________________________
dense_9_0_conv2D (Conv2D)            (None, 256, 256, 16)      34560     activation_43[0][0]      
__________________________________________________________________________________________________
dropout_37 (Dropout)                 (None, 256, 256, 16)      0         dense_9_0_conv2D[0][0]   
__________________________________________________________________________________________________
concatenate_45 (Concatenate)         (None, 256, 256, 256)     0         concatenate_44[0][0]     
                                                                         dropout_37[0][0]         
__________________________________________________________________________________________________
dense_9_1_bn (BatchNormalization)    (None, 256, 256, 256)     1024      concatenate_45[0][0]     
__________________________________________________________________________________________________
activation_44 (Activation)           (None, 256, 256, 256)     0         dense_9_1_bn[0][0]       
__________________________________________________________________________________________________
dense_9_1_conv2D (Conv2D)            (None, 256, 256, 16)      36864     activation_44[0][0]      
__________________________________________________________________________________________________
dropout_38 (Dropout)                 (None, 256, 256, 16)      0         dense_9_1_conv2D[0][0]   
__________________________________________________________________________________________________
concatenate_46 (Concatenate)         (None, 256, 256, 272)     0         concatenate_45[0][0]     
                                                                         dropout_38[0][0]         
__________________________________________________________________________________________________
dense_9_2_bn (BatchNormalization)    (None, 256, 256, 272)     1088      concatenate_46[0][0]     
__________________________________________________________________________________________________
activation_45 (Activation)           (None, 256, 256, 272)     0         dense_9_2_bn[0][0]       
__________________________________________________________________________________________________
dense_9_2_conv2D (Conv2D)            (None, 256, 256, 16)      39168     activation_45[0][0]      
__________________________________________________________________________________________________
dropout_39 (Dropout)                 (None, 256, 256, 16)      0         dense_9_2_conv2D[0][0]   
__________________________________________________________________________________________________
concatenate_47 (Concatenate)         (None, 256, 256, 288)     0         concatenate_46[0][0]     
                                                                         dropout_39[0][0]         
__________________________________________________________________________________________________
dense_9_3_bn (BatchNormalization)    (None, 256, 256, 288)     1152      concatenate_47[0][0]     
__________________________________________________________________________________________________
activation_46 (Activation)           (None, 256, 256, 288)     0         dense_9_3_bn[0][0]       
__________________________________________________________________________________________________
dense_9_3_conv2D (Conv2D)            (None, 256, 256, 16)      41472     activation_46[0][0]      
__________________________________________________________________________________________________
dropout_40 (Dropout)                 (None, 256, 256, 16)      0         dense_9_3_conv2D[0][0]   
__________________________________________________________________________________________________
concatenate_49 (Concatenate)         (None, 256, 256, 64)      0         dropout_37[0][0]         
                                                                         dropout_38[0][0]         
                                                                         dropout_39[0][0]         
                                                                         dropout_40[0][0]         
__________________________________________________________________________________________________
tr_up_4_conv2DT (Conv2DTranspose)    (None, 512, 512, 64)      36928     concatenate_49[0][0]     
__________________________________________________________________________________________________
concatenate_50 (Concatenate)         (None, 512, 512, 176)     0         tr_up_4_conv2DT[0][0]    
                                                                         concatenate_4[0][0]      
__________________________________________________________________________________________________
dense_10_0_bn (BatchNormalization)   (None, 512, 512, 176)     704       concatenate_50[0][0]     
__________________________________________________________________________________________________
activation_47 (Activation)           (None, 512, 512, 176)     0         dense_10_0_bn[0][0]      
__________________________________________________________________________________________________
dense_10_0_conv2D (Conv2D)           (None, 512, 512, 16)      25344     activation_47[0][0]      
__________________________________________________________________________________________________
dropout_41 (Dropout)                 (None, 512, 512, 16)      0         dense_10_0_conv2D[0][0]  
__________________________________________________________________________________________________
concatenate_51 (Concatenate)         (None, 512, 512, 192)     0         concatenate_50[0][0]     
                                                                         dropout_41[0][0]         
__________________________________________________________________________________________________
dense_10_1_bn (BatchNormalization)   (None, 512, 512, 192)     768       concatenate_51[0][0]     
__________________________________________________________________________________________________
activation_48 (Activation)           (None, 512, 512, 192)     0         dense_10_1_bn[0][0]      
__________________________________________________________________________________________________
dense_10_1_conv2D (Conv2D)           (None, 512, 512, 16)      27648     activation_48[0][0]      
__________________________________________________________________________________________________
dropout_42 (Dropout)                 (None, 512, 512, 16)      0         dense_10_1_conv2D[0][0]  
__________________________________________________________________________________________________
concatenate_52 (Concatenate)         (None, 512, 512, 208)     0         concatenate_51[0][0]     
                                                                         dropout_42[0][0]         
__________________________________________________________________________________________________
dense_10_2_bn (BatchNormalization)   (None, 512, 512, 208)     832       concatenate_52[0][0]     
__________________________________________________________________________________________________
activation_49 (Activation)           (None, 512, 512, 208)     0         dense_10_2_bn[0][0]      
__________________________________________________________________________________________________
dense_10_2_conv2D (Conv2D)           (None, 512, 512, 16)      29952     activation_49[0][0]      
__________________________________________________________________________________________________
dropout_43 (Dropout)                 (None, 512, 512, 16)      0         dense_10_2_conv2D[0][0]  
__________________________________________________________________________________________________
concatenate_53 (Concatenate)         (None, 512, 512, 224)     0         concatenate_52[0][0]     
                                                                         dropout_43[0][0]         
__________________________________________________________________________________________________
dense_10_3_bn (BatchNormalization)   (None, 512, 512, 224)     896       concatenate_53[0][0]     
__________________________________________________________________________________________________
activation_50 (Activation)           (None, 512, 512, 224)     0         dense_10_3_bn[0][0]      
__________________________________________________________________________________________________
dense_10_3_conv2D (Conv2D)           (None, 512, 512, 16)      32256     activation_50[0][0]      
__________________________________________________________________________________________________
dropout_44 (Dropout)                 (None, 512, 512, 16)      0         dense_10_3_conv2D[0][0]  
__________________________________________________________________________________________________
concatenate_54 (Concatenate)         (None, 512, 512, 240)     0         concatenate_53[0][0]     
                                                                         dropout_44[0][0]         
__________________________________________________________________________________________________
conv2d_1 (Conv2D)                    (None, 512, 512, 1)       240       concatenate_54[0][0]     
__________________________________________________________________________________________________
reshape_1 (Reshape)                  (None, 262144, 1)         0         conv2d_1[0][0]           
__________________________________________________________________________________________________
activation_51 (Activation)           (None, 262144, 1)         0         reshape_1[0][0]          
__________________________________________________________________________________________________
reshape_2 (Reshape)                  (None, 512, 512, 1)       0         activation_51[0][0]      
==================================================================================================
Total params: 2,314,208
Trainable params: 2,287,456
Non-trainable params: 26,752
__________________________________________________________________________________________________
Epoch 1/100
400/400 [==============================] - 148s 369ms/step - loss: 0.4436 - dice_hard: 0.3024 - val_loss: 0.4658 - val_dice_hard: 0.7075
…
2019-02-14 04:04:57.475614: I tensorflow/core/common_runtime/gpu/gpu_device.cc:1115] Created TensorFlow device (/job:localhost/replica:0/task:0/device:GPU:0 with 15129 MB memory) -> physical GPU (device: 0, name: Tesla P100-PCIE-16GB, pci bus id: 0000:00:04.0, compute capability: 6.0)
__________________________________________________________________________________________________
Layer (type)                         Output Shape              Param #   Connected to             
==================================================================================================
input_1 (InputLayer)                 (None, 512, 512, 1)       0                                  
__________________________________________________________________________________________________
initial_conv2D (Conv2D)              (None, 512, 512, 48)      432       input_1[0][0]            
__________________________________________________________________________________________________
initial_bn (BatchNormalization)      (None, 512, 512, 48)      192       initial_conv2D[0][0]     
__________________________________________________________________________________________________
activation_1 (Activation)            (None, 512, 512, 48)      0         initial_bn[0][0]         
__________________________________________________________________________________________________
dense_0_0_bn (BatchNormalization)    (None, 512, 512, 48)      192       activation_1[0][0]       
__________________________________________________________________________________________________
activation_2 (Activation)            (None, 512, 512, 48)      0         dense_0_0_bn[0][0]       
__________________________________________________________________________________________________
dense_0_0_conv2D (Conv2D)            (None, 512, 512, 16)      6912      activation_2[0][0]       
__________________________________________________________________________________________________
dropout_1 (Dropout)                  (None, 512, 512, 16)      0         dense_0_0_conv2D[0][0]   
__________________________________________________________________________________________________
concatenate_1 (Concatenate)          (None, 512, 512, 64)      0         activation_1[0][0]       
                                                                         dropout_1[0][0]          
__________________________________________________________________________________________________
dense_0_1_bn (BatchNormalization)    (None, 512, 512, 64)      256       concatenate_1[0][0]      
__________________________________________________________________________________________________
activation_3 (Activation)            (None, 512, 512, 64)      0         dense_0_1_bn[0][0]       
__________________________________________________________________________________________________
dense_0_1_conv2D (Conv2D)            (None, 512, 512, 16)      9216      activation_3[0][0]       
__________________________________________________________________________________________________
dropout_2 (Dropout)                  (None, 512, 512, 16)      0         dense_0_1_conv2D[0][0]   
__________________________________________________________________________________________________
concatenate_2 (Concatenate)          (None, 512, 512, 80)      0         concatenate_1[0][0]      
                                                                         dropout_2[0][0]          
__________________________________________________________________________________________________
dense_0_2_bn (BatchNormalization)    (None, 512, 512, 80)      320       concatenate_2[0][0]      
__________________________________________________________________________________________________
activation_4 (Activation)            (None, 512, 512, 80)      0         dense_0_2_bn[0][0]       
__________________________________________________________________________________________________
dense_0_2_conv2D (Conv2D)            (None, 512, 512, 16)      11520     activation_4[0][0]       
__________________________________________________________________________________________________
dropout_3 (Dropout)                  (None, 512, 512, 16)      0         dense_0_2_conv2D[0][0]   
__________________________________________________________________________________________________
concatenate_3 (Concatenate)          (None, 512, 512, 96)      0         concatenate_2[0][0]      
                                                                         dropout_3[0][0]          
__________________________________________________________________________________________________
dense_0_3_bn (BatchNormalization)    (None, 512, 512, 96)      384       concatenate_3[0][0]      
__________________________________________________________________________________________________
activation_5 (Activation)            (None, 512, 512, 96)      0         dense_0_3_bn[0][0]       
__________________________________________________________________________________________________
dense_0_3_conv2D (Conv2D)            (None, 512, 512, 16)      13824     activation_5[0][0]       
__________________________________________________________________________________________________
dropout_4 (Dropout)                  (None, 512, 512, 16)      0         dense_0_3_conv2D[0][0]   
__________________________________________________________________________________________________
concatenate_4 (Concatenate)          (None, 512, 512, 112)     0         concatenate_3[0][0]      
                                                                         dropout_4[0][0]          
__________________________________________________________________________________________________
tr_0_bn (BatchNormalization)         (None, 512, 512, 112)     448       concatenate_4[0][0]      
__________________________________________________________________________________________________
activation_6 (Activation)            (None, 512, 512, 112)     0         tr_0_bn[0][0]            
__________________________________________________________________________________________________
tr_0_conv2D (Conv2D)                 (None, 512, 512, 112)     12544     activation_6[0][0]       
__________________________________________________________________________________________________
max_pooling2d_1 (MaxPooling2D)       (None, 256, 256, 112)     0         tr_0_conv2D[0][0]        
__________________________________________________________________________________________________
dense_1_0_bn (BatchNormalization)    (None, 256, 256, 112)     448       max_pooling2d_1[0][0]    
__________________________________________________________________________________________________
activation_7 (Activation)            (None, 256, 256, 112)     0         dense_1_0_bn[0][0]       
__________________________________________________________________________________________________
dense_1_0_conv2D (Conv2D)            (None, 256, 256, 16)      16128     activation_7[0][0]       
__________________________________________________________________________________________________
dropout_5 (Dropout)                  (None, 256, 256, 16)      0         dense_1_0_conv2D[0][0]   
__________________________________________________________________________________________________
concatenate_5 (Concatenate)          (None, 256, 256, 128)     0         max_pooling2d_1[0][0]    
                                                                         dropout_5[0][0]          
__________________________________________________________________________________________________
dense_1_1_bn (BatchNormalization)    (None, 256, 256, 128)     512       concatenate_5[0][0]      
__________________________________________________________________________________________________
activation_8 (Activation)            (None, 256, 256, 128)     0         dense_1_1_bn[0][0]       
__________________________________________________________________________________________________
dense_1_1_conv2D (Conv2D)            (None, 256, 256, 16)      18432     activation_8[0][0]       
__________________________________________________________________________________________________
dropout_6 (Dropout)                  (None, 256, 256, 16)      0         dense_1_1_conv2D[0][0]   
__________________________________________________________________________________________________
concatenate_6 (Concatenate)          (None, 256, 256, 144)     0         concatenate_5[0][0]      
                                                                         dropout_6[0][0]          
__________________________________________________________________________________________________
dense_1_2_bn (BatchNormalization)    (None, 256, 256, 144)     576       concatenate_6[0][0]      
__________________________________________________________________________________________________
activation_9 (Activation)            (None, 256, 256, 144)     0         dense_1_2_bn[0][0]       
__________________________________________________________________________________________________
dense_1_2_conv2D (Conv2D)            (None, 256, 256, 16)      20736     activation_9[0][0]       
__________________________________________________________________________________________________
dropout_7 (Dropout)                  (None, 256, 256, 16)      0         dense_1_2_conv2D[0][0]   
__________________________________________________________________________________________________
concatenate_7 (Concatenate)          (None, 256, 256, 160)     0         concatenate_6[0][0]      
                                                                         dropout_7[0][0]          
__________________________________________________________________________________________________
dense_1_3_bn (BatchNormalization)    (None, 256, 256, 160)     640       concatenate_7[0][0]      
__________________________________________________________________________________________________
activation_10 (Activation)           (None, 256, 256, 160)     0         dense_1_3_bn[0][0]       
__________________________________________________________________________________________________
dense_1_3_conv2D (Conv2D)            (None, 256, 256, 16)      23040     activation_10[0][0]      
__________________________________________________________________________________________________
dropout_8 (Dropout)                  (None, 256, 256, 16)      0         dense_1_3_conv2D[0][0]   
__________________________________________________________________________________________________
concatenate_8 (Concatenate)          (None, 256, 256, 176)     0         concatenate_7[0][0]      
                                                                         dropout_8[0][0]          
__________________________________________________________________________________________________
tr_1_bn (BatchNormalization)         (None, 256, 256, 176)     704       concatenate_8[0][0]      
__________________________________________________________________________________________________
activation_11 (Activation)           (None, 256, 256, 176)     0         tr_1_bn[0][0]            
__________________________________________________________________________________________________
tr_1_conv2D (Conv2D)                 (None, 256, 256, 176)     30976     activation_11[0][0]      
__________________________________________________________________________________________________
max_pooling2d_2 (MaxPooling2D)       (None, 128, 128, 176)     0         tr_1_conv2D[0][0]        
__________________________________________________________________________________________________
dense_2_0_bn (BatchNormalization)    (None, 128, 128, 176)     704       max_pooling2d_2[0][0]    
__________________________________________________________________________________________________
activation_12 (Activation)           (None, 128, 128, 176)     0         dense_2_0_bn[0][0]       
__________________________________________________________________________________________________
dense_2_0_conv2D (Conv2D)            (None, 128, 128, 16)      25344     activation_12[0][0]      
__________________________________________________________________________________________________
dropout_9 (Dropout)                  (None, 128, 128, 16)      0         dense_2_0_conv2D[0][0]   
__________________________________________________________________________________________________
concatenate_9 (Concatenate)          (None, 128, 128, 192)     0         max_pooling2d_2[0][0]    
                                                                         dropout_9[0][0]          
__________________________________________________________________________________________________
dense_2_1_bn (BatchNormalization)    (None, 128, 128, 192)     768       concatenate_9[0][0]      
__________________________________________________________________________________________________
activation_13 (Activation)           (None, 128, 128, 192)     0         dense_2_1_bn[0][0]       
__________________________________________________________________________________________________
dense_2_1_conv2D (Conv2D)            (None, 128, 128, 16)      27648     activation_13[0][0]      
__________________________________________________________________________________________________
dropout_10 (Dropout)                 (None, 128, 128, 16)      0         dense_2_1_conv2D[0][0]   
__________________________________________________________________________________________________
concatenate_10 (Concatenate)         (None, 128, 128, 208)     0         concatenate_9[0][0]      
                                                                         dropout_10[0][0]         
__________________________________________________________________________________________________
dense_2_2_bn (BatchNormalization)    (None, 128, 128, 208)     832       concatenate_10[0][0]     
__________________________________________________________________________________________________
activation_14 (Activation)           (None, 128, 128, 208)     0         dense_2_2_bn[0][0]       
__________________________________________________________________________________________________
dense_2_2_conv2D (Conv2D)            (None, 128, 128, 16)      29952     activation_14[0][0]      
__________________________________________________________________________________________________
dropout_11 (Dropout)                 (None, 128, 128, 16)      0         dense_2_2_conv2D[0][0]   
__________________________________________________________________________________________________
concatenate_11 (Concatenate)         (None, 128, 128, 224)     0         concatenate_10[0][0]     
                                                                         dropout_11[0][0]         
__________________________________________________________________________________________________
dense_2_3_bn (BatchNormalization)    (None, 128, 128, 224)     896       concatenate_11[0][0]     
__________________________________________________________________________________________________
activation_15 (Activation)           (None, 128, 128, 224)     0         dense_2_3_bn[0][0]       
__________________________________________________________________________________________________
dense_2_3_conv2D (Conv2D)            (None, 128, 128, 16)      32256     activation_15[0][0]      
__________________________________________________________________________________________________
dropout_12 (Dropout)                 (None, 128, 128, 16)      0         dense_2_3_conv2D[0][0]   
__________________________________________________________________________________________________
concatenate_12 (Concatenate)         (None, 128, 128, 240)     0         concatenate_11[0][0]     
                                                                         dropout_12[0][0]         
__________________________________________________________________________________________________
tr_2_bn (BatchNormalization)         (None, 128, 128, 240)     960       concatenate_12[0][0]     
__________________________________________________________________________________________________
activation_16 (Activation)           (None, 128, 128, 240)     0         tr_2_bn[0][0]            
__________________________________________________________________________________________________
tr_2_conv2D (Conv2D)                 (None, 128, 128, 240)     57600     activation_16[0][0]      
__________________________________________________________________________________________________
max_pooling2d_3 (MaxPooling2D)       (None, 64, 64, 240)       0         tr_2_conv2D[0][0]        
__________________________________________________________________________________________________
dense_3_0_bn (BatchNormalization)    (None, 64, 64, 240)       960       max_pooling2d_3[0][0]    
__________________________________________________________________________________________________
activation_17 (Activation)           (None, 64, 64, 240)       0         dense_3_0_bn[0][0]       
__________________________________________________________________________________________________
dense_3_0_conv2D (Conv2D)            (None, 64, 64, 16)        34560     activation_17[0][0]      
__________________________________________________________________________________________________
dropout_13 (Dropout)                 (None, 64, 64, 16)        0         dense_3_0_conv2D[0][0]   
__________________________________________________________________________________________________
concatenate_13 (Concatenate)         (None, 64, 64, 256)       0         max_pooling2d_3[0][0]    
                                                                         dropout_13[0][0]         
__________________________________________________________________________________________________
dense_3_1_bn (BatchNormalization)    (None, 64, 64, 256)       1024      concatenate_13[0][0]     
__________________________________________________________________________________________________
activation_18 (Activation)           (None, 64, 64, 256)       0         dense_3_1_bn[0][0]       
__________________________________________________________________________________________________
dense_3_1_conv2D (Conv2D)            (None, 64, 64, 16)        36864     activation_18[0][0]      
__________________________________________________________________________________________________
dropout_14 (Dropout)                 (None, 64, 64, 16)        0         dense_3_1_conv2D[0][0]   
__________________________________________________________________________________________________
concatenate_14 (Concatenate)         (None, 64, 64, 272)       0         concatenate_13[0][0]     
                                                                         dropout_14[0][0]         
__________________________________________________________________________________________________
dense_3_2_bn (BatchNormalization)    (None, 64, 64, 272)       1088      concatenate_14[0][0]     
__________________________________________________________________________________________________
activation_19 (Activation)           (None, 64, 64, 272)       0         dense_3_2_bn[0][0]       
__________________________________________________________________________________________________
dense_3_2_conv2D (Conv2D)            (None, 64, 64, 16)        39168     activation_19[0][0]      
__________________________________________________________________________________________________
dropout_15 (Dropout)                 (None, 64, 64, 16)        0         dense_3_2_conv2D[0][0]   
__________________________________________________________________________________________________
concatenate_15 (Concatenate)         (None, 64, 64, 288)       0         concatenate_14[0][0]     
                                                                         dropout_15[0][0]         
__________________________________________________________________________________________________
dense_3_3_bn (BatchNormalization)    (None, 64, 64, 288)       1152      concatenate_15[0][0]     
__________________________________________________________________________________________________
activation_20 (Activation)           (None, 64, 64, 288)       0         dense_3_3_bn[0][0]       
__________________________________________________________________________________________________
dense_3_3_conv2D (Conv2D)            (None, 64, 64, 16)        41472     activation_20[0][0]      
__________________________________________________________________________________________________
dropout_16 (Dropout)                 (None, 64, 64, 16)        0         dense_3_3_conv2D[0][0]   
__________________________________________________________________________________________________
concatenate_16 (Concatenate)         (None, 64, 64, 304)       0         concatenate_15[0][0]     
                                                                         dropout_16[0][0]         
__________________________________________________________________________________________________
tr_3_bn (BatchNormalization)         (None, 64, 64, 304)       1216      concatenate_16[0][0]     
__________________________________________________________________________________________________
activation_21 (Activation)           (None, 64, 64, 304)       0         tr_3_bn[0][0]            
__________________________________________________________________________________________________
tr_3_conv2D (Conv2D)                 (None, 64, 64, 304)       92416     activation_21[0][0]      
__________________________________________________________________________________________________
max_pooling2d_4 (MaxPooling2D)       (None, 32, 32, 304)       0         tr_3_conv2D[0][0]        
__________________________________________________________________________________________________
dense_4_0_bn (BatchNormalization)    (None, 32, 32, 304)       1216      max_pooling2d_4[0][0]    
__________________________________________________________________________________________________
activation_22 (Activation)           (None, 32, 32, 304)       0         dense_4_0_bn[0][0]       
__________________________________________________________________________________________________
dense_4_0_conv2D (Conv2D)            (None, 32, 32, 16)        43776     activation_22[0][0]      
__________________________________________________________________________________________________
dropout_17 (Dropout)                 (None, 32, 32, 16)        0         dense_4_0_conv2D[0][0]   
__________________________________________________________________________________________________
concatenate_17 (Concatenate)         (None, 32, 32, 320)       0         max_pooling2d_4[0][0]    
                                                                         dropout_17[0][0]         
__________________________________________________________________________________________________
dense_4_1_bn (BatchNormalization)    (None, 32, 32, 320)       1280      concatenate_17[0][0]     
__________________________________________________________________________________________________
activation_23 (Activation)           (None, 32, 32, 320)       0         dense_4_1_bn[0][0]       
__________________________________________________________________________________________________
dense_4_1_conv2D (Conv2D)            (None, 32, 32, 16)        46080     activation_23[0][0]      
__________________________________________________________________________________________________
dropout_18 (Dropout)                 (None, 32, 32, 16)        0         dense_4_1_conv2D[0][0]   
__________________________________________________________________________________________________
concatenate_18 (Concatenate)         (None, 32, 32, 336)       0         concatenate_17[0][0]     
                                                                         dropout_18[0][0]         
__________________________________________________________________________________________________
dense_4_2_bn (BatchNormalization)    (None, 32, 32, 336)       1344      concatenate_18[0][0]     
__________________________________________________________________________________________________
activation_24 (Activation)           (None, 32, 32, 336)       0         dense_4_2_bn[0][0]       
__________________________________________________________________________________________________
dense_4_2_conv2D (Conv2D)            (None, 32, 32, 16)        48384     activation_24[0][0]      
__________________________________________________________________________________________________
dropout_19 (Dropout)                 (None, 32, 32, 16)        0         dense_4_2_conv2D[0][0]   
__________________________________________________________________________________________________
concatenate_19 (Concatenate)         (None, 32, 32, 352)       0         concatenate_18[0][0]     
                                                                         dropout_19[0][0]         
__________________________________________________________________________________________________
dense_4_3_bn (BatchNormalization)    (None, 32, 32, 352)       1408      concatenate_19[0][0]     
__________________________________________________________________________________________________
activation_25 (Activation)           (None, 32, 32, 352)       0         dense_4_3_bn[0][0]       
__________________________________________________________________________________________________
dense_4_3_conv2D (Conv2D)            (None, 32, 32, 16)        50688     activation_25[0][0]      
__________________________________________________________________________________________________
dropout_20 (Dropout)                 (None, 32, 32, 16)        0         dense_4_3_conv2D[0][0]   
__________________________________________________________________________________________________
concatenate_20 (Concatenate)         (None, 32, 32, 368)       0         concatenate_19[0][0]     
                                                                         dropout_20[0][0]         
__________________________________________________________________________________________________
tr_4_bn (BatchNormalization)         (None, 32, 32, 368)       1472      concatenate_20[0][0]     
__________________________________________________________________________________________________
activation_26 (Activation)           (None, 32, 32, 368)       0         tr_4_bn[0][0]            
__________________________________________________________________________________________________
tr_4_conv2D (Conv2D)                 (None, 32, 32, 368)       135424    activation_26[0][0]      
__________________________________________________________________________________________________
max_pooling2d_5 (MaxPooling2D)       (None, 16, 16, 368)       0         tr_4_conv2D[0][0]        
__________________________________________________________________________________________________
dense_5_0_bn (BatchNormalization)    (None, 16, 16, 368)       1472      max_pooling2d_5[0][0]    
__________________________________________________________________________________________________
activation_27 (Activation)           (None, 16, 16, 368)       0         dense_5_0_bn[0][0]       
__________________________________________________________________________________________________
dense_5_0_conv2D (Conv2D)            (None, 16, 16, 16)        52992     activation_27[0][0]      
__________________________________________________________________________________________________
dropout_21 (Dropout)                 (None, 16, 16, 16)        0         dense_5_0_conv2D[0][0]   
__________________________________________________________________________________________________
concatenate_21 (Concatenate)         (None, 16, 16, 384)       0         max_pooling2d_5[0][0]    
                                                                         dropout_21[0][0]         
__________________________________________________________________________________________________
dense_5_1_bn (BatchNormalization)    (None, 16, 16, 384)       1536      concatenate_21[0][0]     
__________________________________________________________________________________________________
activation_28 (Activation)           (None, 16, 16, 384)       0         dense_5_1_bn[0][0]       
__________________________________________________________________________________________________
dense_5_1_conv2D (Conv2D)            (None, 16, 16, 16)        55296     activation_28[0][0]      
__________________________________________________________________________________________________
dropout_22 (Dropout)                 (None, 16, 16, 16)        0         dense_5_1_conv2D[0][0]   
__________________________________________________________________________________________________
concatenate_22 (Concatenate)         (None, 16, 16, 400)       0         concatenate_21[0][0]     
                                                                         dropout_22[0][0]         
__________________________________________________________________________________________________
dense_5_2_bn (BatchNormalization)    (None, 16, 16, 400)       1600      concatenate_22[0][0]     
__________________________________________________________________________________________________
activation_29 (Activation)           (None, 16, 16, 400)       0         dense_5_2_bn[0][0]       
__________________________________________________________________________________________________
dense_5_2_conv2D (Conv2D)            (None, 16, 16, 16)        57600     activation_29[0][0]      
__________________________________________________________________________________________________
dropout_23 (Dropout)                 (None, 16, 16, 16)        0         dense_5_2_conv2D[0][0]   
__________________________________________________________________________________________________
concatenate_23 (Concatenate)         (None, 16, 16, 416)       0         concatenate_22[0][0]     
                                                                         dropout_23[0][0]         
__________________________________________________________________________________________________
dense_5_3_bn (BatchNormalization)    (None, 16, 16, 416)       1664      concatenate_23[0][0]     
__________________________________________________________________________________________________
activation_30 (Activation)           (None, 16, 16, 416)       0         dense_5_3_bn[0][0]       
__________________________________________________________________________________________________
dense_5_3_conv2D (Conv2D)            (None, 16, 16, 16)        59904     activation_30[0][0]      
__________________________________________________________________________________________________
dropout_24 (Dropout)                 (None, 16, 16, 16)        0         dense_5_3_conv2D[0][0]   
__________________________________________________________________________________________________
concatenate_25 (Concatenate)         (None, 16, 16, 64)        0         dropout_21[0][0]         
                                                                         dropout_22[0][0]         
                                                                         dropout_23[0][0]         
                                                                         dropout_24[0][0]         
__________________________________________________________________________________________________
tr_up_0_conv2DT (Conv2DTranspose)    (None, 32, 32, 64)        36928     concatenate_25[0][0]     
__________________________________________________________________________________________________
concatenate_26 (Concatenate)         (None, 32, 32, 432)       0         tr_up_0_conv2DT[0][0]    
                                                                         concatenate_20[0][0]     
__________________________________________________________________________________________________
dense_6_0_bn (BatchNormalization)    (None, 32, 32, 432)       1728      concatenate_26[0][0]     
__________________________________________________________________________________________________
activation_31 (Activation)           (None, 32, 32, 432)       0         dense_6_0_bn[0][0]       
__________________________________________________________________________________________________
dense_6_0_conv2D (Conv2D)            (None, 32, 32, 16)        62208     activation_31[0][0]      
__________________________________________________________________________________________________
dropout_25 (Dropout)                 (None, 32, 32, 16)        0         dense_6_0_conv2D[0][0]   
__________________________________________________________________________________________________
concatenate_27 (Concatenate)         (None, 32, 32, 448)       0         concatenate_26[0][0]     
                                                                         dropout_25[0][0]         
__________________________________________________________________________________________________
dense_6_1_bn (BatchNormalization)    (None, 32, 32, 448)       1792      concatenate_27[0][0]     
__________________________________________________________________________________________________
activation_32 (Activation)           (None, 32, 32, 448)       0         dense_6_1_bn[0][0]       
__________________________________________________________________________________________________
dense_6_1_conv2D (Conv2D)            (None, 32, 32, 16)        64512     activation_32[0][0]      
__________________________________________________________________________________________________
dropout_26 (Dropout)                 (None, 32, 32, 16)        0         dense_6_1_conv2D[0][0]   
__________________________________________________________________________________________________
concatenate_28 (Concatenate)         (None, 32, 32, 464)       0         concatenate_27[0][0]     
                                                                         dropout_26[0][0]         
__________________________________________________________________________________________________
dense_6_2_bn (BatchNormalization)    (None, 32, 32, 464)       1856      concatenate_28[0][0]     
__________________________________________________________________________________________________
activation_33 (Activation)           (None, 32, 32, 464)       0         dense_6_2_bn[0][0]       
__________________________________________________________________________________________________
dense_6_2_conv2D (Conv2D)            (None, 32, 32, 16)        66816     activation_33[0][0]      
__________________________________________________________________________________________________
dropout_27 (Dropout)                 (None, 32, 32, 16)        0         dense_6_2_conv2D[0][0]   
__________________________________________________________________________________________________
concatenate_29 (Concatenate)         (None, 32, 32, 480)       0         concatenate_28[0][0]     
                                                                         dropout_27[0][0]         
__________________________________________________________________________________________________
dense_6_3_bn (BatchNormalization)    (None, 32, 32, 480)       1920      concatenate_29[0][0]     
__________________________________________________________________________________________________
activation_34 (Activation)           (None, 32, 32, 480)       0         dense_6_3_bn[0][0]       
__________________________________________________________________________________________________
dense_6_3_conv2D (Conv2D)            (None, 32, 32, 16)        69120     activation_34[0][0]      
__________________________________________________________________________________________________
dropout_28 (Dropout)                 (None, 32, 32, 16)        0         dense_6_3_conv2D[0][0]   
__________________________________________________________________________________________________
concatenate_31 (Concatenate)         (None, 32, 32, 64)        0         dropout_25[0][0]         
                                                                         dropout_26[0][0]         
                                                                         dropout_27[0][0]         
                                                                         dropout_28[0][0]         
__________________________________________________________________________________________________
tr_up_1_conv2DT (Conv2DTranspose)    (None, 64, 64, 64)        36928     concatenate_31[0][0]     
__________________________________________________________________________________________________
concatenate_32 (Concatenate)         (None, 64, 64, 368)       0         tr_up_1_conv2DT[0][0]    
                                                                         concatenate_16[0][0]     
__________________________________________________________________________________________________
dense_7_0_bn (BatchNormalization)    (None, 64, 64, 368)       1472      concatenate_32[0][0]     
__________________________________________________________________________________________________
activation_35 (Activation)           (None, 64, 64, 368)       0         dense_7_0_bn[0][0]       
__________________________________________________________________________________________________
dense_7_0_conv2D (Conv2D)            (None, 64, 64, 16)        52992     activation_35[0][0]      
__________________________________________________________________________________________________
dropout_29 (Dropout)                 (None, 64, 64, 16)        0         dense_7_0_conv2D[0][0]   
__________________________________________________________________________________________________
concatenate_33 (Concatenate)         (None, 64, 64, 384)       0         concatenate_32[0][0]     
                                                                         dropout_29[0][0]         
__________________________________________________________________________________________________
dense_7_1_bn (BatchNormalization)    (None, 64, 64, 384)       1536      concatenate_33[0][0]     
__________________________________________________________________________________________________
activation_36 (Activation)           (None, 64, 64, 384)       0         dense_7_1_bn[0][0]       
__________________________________________________________________________________________________
dense_7_1_conv2D (Conv2D)            (None, 64, 64, 16)        55296     activation_36[0][0]      
__________________________________________________________________________________________________
dropout_30 (Dropout)                 (None, 64, 64, 16)        0         dense_7_1_conv2D[0][0]   
__________________________________________________________________________________________________
concatenate_34 (Concatenate)         (None, 64, 64, 400)       0         concatenate_33[0][0]     
                                                                         dropout_30[0][0]         
__________________________________________________________________________________________________
dense_7_2_bn (BatchNormalization)    (None, 64, 64, 400)       1600      concatenate_34[0][0]     
__________________________________________________________________________________________________
activation_37 (Activation)           (None, 64, 64, 400)       0         dense_7_2_bn[0][0]       
__________________________________________________________________________________________________
dense_7_2_conv2D (Conv2D)            (None, 64, 64, 16)        57600     activation_37[0][0]      
__________________________________________________________________________________________________
dropout_31 (Dropout)                 (None, 64, 64, 16)        0         dense_7_2_conv2D[0][0]   
__________________________________________________________________________________________________
concatenate_35 (Concatenate)         (None, 64, 64, 416)       0         concatenate_34[0][0]     
                                                                         dropout_31[0][0]         
__________________________________________________________________________________________________
dense_7_3_bn (BatchNormalization)    (None, 64, 64, 416)       1664      concatenate_35[0][0]     
__________________________________________________________________________________________________
activation_38 (Activation)           (None, 64, 64, 416)       0         dense_7_3_bn[0][0]       
__________________________________________________________________________________________________
dense_7_3_conv2D (Conv2D)            (None, 64, 64, 16)        59904     activation_38[0][0]      
__________________________________________________________________________________________________
dropout_32 (Dropout)                 (None, 64, 64, 16)        0         dense_7_3_conv2D[0][0]   
__________________________________________________________________________________________________
concatenate_37 (Concatenate)         (None, 64, 64, 64)        0         dropout_29[0][0]         
                                                                         dropout_30[0][0]         
                                                                         dropout_31[0][0]         
                                                                         dropout_32[0][0]         
__________________________________________________________________________________________________
tr_up_2_conv2DT (Conv2DTranspose)    (None, 128, 128, 64)      36928     concatenate_37[0][0]     
__________________________________________________________________________________________________
concatenate_38 (Concatenate)         (None, 128, 128, 304)     0         tr_up_2_conv2DT[0][0]    
                                                                         concatenate_12[0][0]     
__________________________________________________________________________________________________
dense_8_0_bn (BatchNormalization)    (None, 128, 128, 304)     1216      concatenate_38[0][0]     
__________________________________________________________________________________________________
activation_39 (Activation)           (None, 128, 128, 304)     0         dense_8_0_bn[0][0]       
__________________________________________________________________________________________________
dense_8_0_conv2D (Conv2D)            (None, 128, 128, 16)      43776     activation_39[0][0]      
__________________________________________________________________________________________________
dropout_33 (Dropout)                 (None, 128, 128, 16)      0         dense_8_0_conv2D[0][0]   
__________________________________________________________________________________________________
concatenate_39 (Concatenate)         (None, 128, 128, 320)     0         concatenate_38[0][0]     
                                                                         dropout_33[0][0]         
__________________________________________________________________________________________________
dense_8_1_bn (BatchNormalization)    (None, 128, 128, 320)     1280      concatenate_39[0][0]     
__________________________________________________________________________________________________
activation_40 (Activation)           (None, 128, 128, 320)     0         dense_8_1_bn[0][0]       
__________________________________________________________________________________________________
dense_8_1_conv2D (Conv2D)            (None, 128, 128, 16)      46080     activation_40[0][0]      
__________________________________________________________________________________________________
dropout_34 (Dropout)                 (None, 128, 128, 16)      0         dense_8_1_conv2D[0][0]   
__________________________________________________________________________________________________
concatenate_40 (Concatenate)         (None, 128, 128, 336)     0         concatenate_39[0][0]     
                                                                         dropout_34[0][0]         
__________________________________________________________________________________________________
dense_8_2_bn (BatchNormalization)    (None, 128, 128, 336)     1344      concatenate_40[0][0]     
__________________________________________________________________________________________________
activation_41 (Activation)           (None, 128, 128, 336)     0         dense_8_2_bn[0][0]       
__________________________________________________________________________________________________
dense_8_2_conv2D (Conv2D)            (None, 128, 128, 16)      48384     activation_41[0][0]      
__________________________________________________________________________________________________
dropout_35 (Dropout)                 (None, 128, 128, 16)      0         dense_8_2_conv2D[0][0]   
__________________________________________________________________________________________________
concatenate_41 (Concatenate)         (None, 128, 128, 352)     0         concatenate_40[0][0]     
                                                                         dropout_35[0][0]         
__________________________________________________________________________________________________
dense_8_3_bn (BatchNormalization)    (None, 128, 128, 352)     1408      concatenate_41[0][0]     
__________________________________________________________________________________________________
activation_42 (Activation)           (None, 128, 128, 352)     0         dense_8_3_bn[0][0]       
__________________________________________________________________________________________________
dense_8_3_conv2D (Conv2D)            (None, 128, 128, 16)      50688     activation_42[0][0]      
__________________________________________________________________________________________________
dropout_36 (Dropout)                 (None, 128, 128, 16)      0         dense_8_3_conv2D[0][0]   
__________________________________________________________________________________________________
concatenate_43 (Concatenate)         (None, 128, 128, 64)      0         dropout_33[0][0]         
                                                                         dropout_34[0][0]         
                                                                         dropout_35[0][0]         
                                                                         dropout_36[0][0]         
__________________________________________________________________________________________________
tr_up_3_conv2DT (Conv2DTranspose)    (None, 256, 256, 64)      36928     concatenate_43[0][0]     
__________________________________________________________________________________________________
concatenate_44 (Concatenate)         (None, 256, 256, 240)     0         tr_up_3_conv2DT[0][0]    
                                                                         concatenate_8[0][0]      
__________________________________________________________________________________________________
dense_9_0_bn (BatchNormalization)    (None, 256, 256, 240)     960       concatenate_44[0][0]     
__________________________________________________________________________________________________
activation_43 (Activation)           (None, 256, 256, 240)     0         dense_9_0_bn[0][0]       
__________________________________________________________________________________________________
dense_9_0_conv2D (Conv2D)            (None, 256, 256, 16)      34560     activation_43[0][0]      
__________________________________________________________________________________________________
dropout_37 (Dropout)                 (None, 256, 256, 16)      0         dense_9_0_conv2D[0][0]   
__________________________________________________________________________________________________
concatenate_45 (Concatenate)         (None, 256, 256, 256)     0         concatenate_44[0][0]     
                                                                         dropout_37[0][0]         
__________________________________________________________________________________________________
dense_9_1_bn (BatchNormalization)    (None, 256, 256, 256)     1024      concatenate_45[0][0]     
__________________________________________________________________________________________________
activation_44 (Activation)           (None, 256, 256, 256)     0         dense_9_1_bn[0][0]       
__________________________________________________________________________________________________
dense_9_1_conv2D (Conv2D)            (None, 256, 256, 16)      36864     activation_44[0][0]      
__________________________________________________________________________________________________
dropout_38 (Dropout)                 (None, 256, 256, 16)      0         dense_9_1_conv2D[0][0]   
__________________________________________________________________________________________________
concatenate_46 (Concatenate)         (None, 256, 256, 272)     0         concatenate_45[0][0]     
                                                                         dropout_38[0][0]         
__________________________________________________________________________________________________
dense_9_2_bn (BatchNormalization)    (None, 256, 256, 272)     1088      concatenate_46[0][0]     
__________________________________________________________________________________________________
activation_45 (Activation)           (None, 256, 256, 272)     0         dense_9_2_bn[0][0]       
__________________________________________________________________________________________________
dense_9_2_conv2D (Conv2D)            (None, 256, 256, 16)      39168     activation_45[0][0]      
__________________________________________________________________________________________________
dropout_39 (Dropout)                 (None, 256, 256, 16)      0         dense_9_2_conv2D[0][0]   
__________________________________________________________________________________________________
concatenate_47 (Concatenate)         (None, 256, 256, 288)     0         concatenate_46[0][0]     
                                                                         dropout_39[0][0]         
__________________________________________________________________________________________________
dense_9_3_bn (BatchNormalization)    (None, 256, 256, 288)     1152      concatenate_47[0][0]     
__________________________________________________________________________________________________
activation_46 (Activation)           (None, 256, 256, 288)     0         dense_9_3_bn[0][0]       
__________________________________________________________________________________________________
dense_9_3_conv2D (Conv2D)            (None, 256, 256, 16)      41472     activation_46[0][0]      
__________________________________________________________________________________________________
dropout_40 (Dropout)                 (None, 256, 256, 16)      0         dense_9_3_conv2D[0][0]   
__________________________________________________________________________________________________
concatenate_49 (Concatenate)         (None, 256, 256, 64)      0         dropout_37[0][0]         
                                                                         dropout_38[0][0]         
                                                                         dropout_39[0][0]         
                                                                         dropout_40[0][0]         
__________________________________________________________________________________________________
tr_up_4_conv2DT (Conv2DTranspose)    (None, 512, 512, 64)      36928     concatenate_49[0][0]     
__________________________________________________________________________________________________
concatenate_50 (Concatenate)         (None, 512, 512, 176)     0         tr_up_4_conv2DT[0][0]    
                                                                         concatenate_4[0][0]      
__________________________________________________________________________________________________
dense_10_0_bn (BatchNormalization)   (None, 512, 512, 176)     704       concatenate_50[0][0]     
__________________________________________________________________________________________________
activation_47 (Activation)           (None, 512, 512, 176)     0         dense_10_0_bn[0][0]      
__________________________________________________________________________________________________
dense_10_0_conv2D (Conv2D)           (None, 512, 512, 16)      25344     activation_47[0][0]      
__________________________________________________________________________________________________
dropout_41 (Dropout)                 (None, 512, 512, 16)      0         dense_10_0_conv2D[0][0]  
__________________________________________________________________________________________________
concatenate_51 (Concatenate)         (None, 512, 512, 192)     0         concatenate_50[0][0]     
                                                                         dropout_41[0][0]         
__________________________________________________________________________________________________
dense_10_1_bn (BatchNormalization)   (None, 512, 512, 192)     768       concatenate_51[0][0]     
__________________________________________________________________________________________________
activation_48 (Activation)           (None, 512, 512, 192)     0         dense_10_1_bn[0][0]      
__________________________________________________________________________________________________
dense_10_1_conv2D (Conv2D)           (None, 512, 512, 16)      27648     activation_48[0][0]      
__________________________________________________________________________________________________
dropout_42 (Dropout)                 (None, 512, 512, 16)      0         dense_10_1_conv2D[0][0]  
__________________________________________________________________________________________________
concatenate_52 (Concatenate)         (None, 512, 512, 208)     0         concatenate_51[0][0]     
                                                                         dropout_42[0][0]         
__________________________________________________________________________________________________
dense_10_2_bn (BatchNormalization)   (None, 512, 512, 208)     832       concatenate_52[0][0]     
__________________________________________________________________________________________________
activation_49 (Activation)           (None, 512, 512, 208)     0         dense_10_2_bn[0][0]      
__________________________________________________________________________________________________
dense_10_2_conv2D (Conv2D)           (None, 512, 512, 16)      29952     activation_49[0][0]      
__________________________________________________________________________________________________
dropout_43 (Dropout)                 (None, 512, 512, 16)      0         dense_10_2_conv2D[0][0]  
__________________________________________________________________________________________________
concatenate_53 (Concatenate)         (None, 512, 512, 224)     0         concatenate_52[0][0]     
                                                                         dropout_43[0][0]         
__________________________________________________________________________________________________
dense_10_3_bn (BatchNormalization)   (None, 512, 512, 224)     896       concatenate_53[0][0]     
__________________________________________________________________________________________________
activation_50 (Activation)           (None, 512, 512, 224)     0         dense_10_3_bn[0][0]      
__________________________________________________________________________________________________
dense_10_3_conv2D (Conv2D)           (None, 512, 512, 16)      32256     activation_50[0][0]      
__________________________________________________________________________________________________
dropout_44 (Dropout)                 (None, 512, 512, 16)      0         dense_10_3_conv2D[0][0]  
__________________________________________________________________________________________________
concatenate_54 (Concatenate)         (None, 512, 512, 240)     0         concatenate_53[0][0]     
                                                                         dropout_44[0][0]         
__________________________________________________________________________________________________
conv2d_1 (Conv2D)                    (None, 512, 512, 1)       240       concatenate_54[0][0]     
__________________________________________________________________________________________________
reshape_1 (Reshape)                  (None, 262144, 1)         0         conv2d_1[0][0]           
__________________________________________________________________________________________________
activation_51 (Activation)           (None, 262144, 1)         0         reshape_1[0][0]          
__________________________________________________________________________________________________
reshape_2 (Reshape)                  (None, 512, 512, 1)       0         activation_51[0][0]      
==================================================================================================
Total params: 2,314,208
Trainable params: 2,287,456
Non-trainable params: 26,752
__________________________________________________________________________________________________
__________________________________________________________________________________________________
Layer (type)                         Output Shape              Param #   Connected to             
==================================================================================================
input_1 (InputLayer)                 (None, 512, 512, 1)       0                                  
__________________________________________________________________________________________________
initial_conv2D (Conv2D)              (None, 512, 512, 48)      432       input_1[0][0]            
__________________________________________________________________________________________________
initial_bn (BatchNormalization)      (None, 512, 512, 48)      192       initial_conv2D[0][0]     
__________________________________________________________________________________________________
activation_1 (Activation)            (None, 512, 512, 48)      0         initial_bn[0][0]         
__________________________________________________________________________________________________
dense_0_0_bn (BatchNormalization)    (None, 512, 512, 48)      192       activation_1[0][0]       
__________________________________________________________________________________________________
activation_2 (Activation)            (None, 512, 512, 48)      0         dense_0_0_bn[0][0]       
__________________________________________________________________________________________________
dense_0_0_conv2D (Conv2D)            (None, 512, 512, 16)      6912      activation_2[0][0]       
__________________________________________________________________________________________________
dropout_1 (Dropout)                  (None, 512, 512, 16)      0         dense_0_0_conv2D[0][0]   
__________________________________________________________________________________________________
concatenate_1 (Concatenate)          (None, 512, 512, 64)      0         activation_1[0][0]       
                                                                         dropout_1[0][0]          
__________________________________________________________________________________________________
dense_0_1_bn (BatchNormalization)    (None, 512, 512, 64)      256       concatenate_1[0][0]      
__________________________________________________________________________________________________
activation_3 (Activation)            (None, 512, 512, 64)      0         dense_0_1_bn[0][0]       
__________________________________________________________________________________________________
dense_0_1_conv2D (Conv2D)            (None, 512, 512, 16)      9216      activation_3[0][0]       
__________________________________________________________________________________________________
dropout_2 (Dropout)                  (None, 512, 512, 16)      0         dense_0_1_conv2D[0][0]   
__________________________________________________________________________________________________
concatenate_2 (Concatenate)          (None, 512, 512, 80)      0         concatenate_1[0][0]      
                                                                         dropout_2[0][0]          
__________________________________________________________________________________________________
dense_0_2_bn (BatchNormalization)    (None, 512, 512, 80)      320       concatenate_2[0][0]      
__________________________________________________________________________________________________
activation_4 (Activation)            (None, 512, 512, 80)      0         dense_0_2_bn[0][0]       
__________________________________________________________________________________________________
dense_0_2_conv2D (Conv2D)            (None, 512, 512, 16)      11520     activation_4[0][0]       
__________________________________________________________________________________________________
dropout_3 (Dropout)                  (None, 512, 512, 16)      0         dense_0_2_conv2D[0][0]   
__________________________________________________________________________________________________
concatenate_3 (Concatenate)          (None, 512, 512, 96)      0         concatenate_2[0][0]      
                                                                         dropout_3[0][0]          
__________________________________________________________________________________________________
dense_0_3_bn (BatchNormalization)    (None, 512, 512, 96)      384       concatenate_3[0][0]      
__________________________________________________________________________________________________
activation_5 (Activation)            (None, 512, 512, 96)      0         dense_0_3_bn[0][0]       
__________________________________________________________________________________________________
dense_0_3_conv2D (Conv2D)            (None, 512, 512, 16)      13824     activation_5[0][0]       
__________________________________________________________________________________________________
dropout_4 (Dropout)                  (None, 512, 512, 16)      0         dense_0_3_conv2D[0][0]   
__________________________________________________________________________________________________
concatenate_4 (Concatenate)          (None, 512, 512, 112)     0         concatenate_3[0][0]      
                                                                         dropout_4[0][0]          
__________________________________________________________________________________________________
tr_0_bn (BatchNormalization)         (None, 512, 512, 112)     448       concatenate_4[0][0]      
__________________________________________________________________________________________________
activation_6 (Activation)            (None, 512, 512, 112)     0         tr_0_bn[0][0]            
__________________________________________________________________________________________________
tr_0_conv2D (Conv2D)                 (None, 512, 512, 112)     12544     activation_6[0][0]       
__________________________________________________________________________________________________
max_pooling2d_1 (MaxPooling2D)       (None, 256, 256, 112)     0         tr_0_conv2D[0][0]        
__________________________________________________________________________________________________
dense_1_0_bn (BatchNormalization)    (None, 256, 256, 112)     448       max_pooling2d_1[0][0]    
__________________________________________________________________________________________________
activation_7 (Activation)            (None, 256, 256, 112)     0         dense_1_0_bn[0][0]       
__________________________________________________________________________________________________
dense_1_0_conv2D (Conv2D)            (None, 256, 256, 16)      16128     activation_7[0][0]       
__________________________________________________________________________________________________
dropout_5 (Dropout)                  (None, 256, 256, 16)      0         dense_1_0_conv2D[0][0]   
__________________________________________________________________________________________________
concatenate_5 (Concatenate)          (None, 256, 256, 128)     0         max_pooling2d_1[0][0]    
                                                                         dropout_5[0][0]          
__________________________________________________________________________________________________
dense_1_1_bn (BatchNormalization)    (None, 256, 256, 128)     512       concatenate_5[0][0]      
__________________________________________________________________________________________________
activation_8 (Activation)            (None, 256, 256, 128)     0         dense_1_1_bn[0][0]       
__________________________________________________________________________________________________
dense_1_1_conv2D (Conv2D)            (None, 256, 256, 16)      18432     activation_8[0][0]       
__________________________________________________________________________________________________
dropout_6 (Dropout)                  (None, 256, 256, 16)      0         dense_1_1_conv2D[0][0]   
__________________________________________________________________________________________________
concatenate_6 (Concatenate)          (None, 256, 256, 144)     0         concatenate_5[0][0]      
                                                                         dropout_6[0][0]          
__________________________________________________________________________________________________
dense_1_2_bn (BatchNormalization)    (None, 256, 256, 144)     576       concatenate_6[0][0]      
__________________________________________________________________________________________________
activation_9 (Activation)            (None, 256, 256, 144)     0         dense_1_2_bn[0][0]       
__________________________________________________________________________________________________
dense_1_2_conv2D (Conv2D)            (None, 256, 256, 16)      20736     activation_9[0][0]       
__________________________________________________________________________________________________
dropout_7 (Dropout)                  (None, 256, 256, 16)      0         dense_1_2_conv2D[0][0]   
__________________________________________________________________________________________________
concatenate_7 (Concatenate)          (None, 256, 256, 160)     0         concatenate_6[0][0]      
                                                                         dropout_7[0][0]          
__________________________________________________________________________________________________
dense_1_3_bn (BatchNormalization)    (None, 256, 256, 160)     640       concatenate_7[0][0]      
__________________________________________________________________________________________________
activation_10 (Activation)           (None, 256, 256, 160)     0         dense_1_3_bn[0][0]       
__________________________________________________________________________________________________
dense_1_3_conv2D (Conv2D)            (None, 256, 256, 16)      23040     activation_10[0][0]      
__________________________________________________________________________________________________
dropout_8 (Dropout)                  (None, 256, 256, 16)      0         dense_1_3_conv2D[0][0]   
__________________________________________________________________________________________________
concatenate_8 (Concatenate)          (None, 256, 256, 176)     0         concatenate_7[0][0]      
                                                                         dropout_8[0][0]          
__________________________________________________________________________________________________
tr_1_bn (BatchNormalization)         (None, 256, 256, 176)     704       concatenate_8[0][0]      
__________________________________________________________________________________________________
activation_11 (Activation)           (None, 256, 256, 176)     0         tr_1_bn[0][0]            
__________________________________________________________________________________________________
tr_1_conv2D (Conv2D)                 (None, 256, 256, 176)     30976     activation_11[0][0]      
__________________________________________________________________________________________________
max_pooling2d_2 (MaxPooling2D)       (None, 128, 128, 176)     0         tr_1_conv2D[0][0]        
__________________________________________________________________________________________________
dense_2_0_bn (BatchNormalization)    (None, 128, 128, 176)     704       max_pooling2d_2[0][0]    
__________________________________________________________________________________________________
activation_12 (Activation)           (None, 128, 128, 176)     0         dense_2_0_bn[0][0]       
__________________________________________________________________________________________________
dense_2_0_conv2D (Conv2D)            (None, 128, 128, 16)      25344     activation_12[0][0]      
__________________________________________________________________________________________________
dropout_9 (Dropout)                  (None, 128, 128, 16)      0         dense_2_0_conv2D[0][0]   
__________________________________________________________________________________________________
concatenate_9 (Concatenate)          (None, 128, 128, 192)     0         max_pooling2d_2[0][0]    
                                                                         dropout_9[0][0]          
__________________________________________________________________________________________________
dense_2_1_bn (BatchNormalization)    (None, 128, 128, 192)     768       concatenate_9[0][0]      
__________________________________________________________________________________________________
activation_13 (Activation)           (None, 128, 128, 192)     0         dense_2_1_bn[0][0]       
__________________________________________________________________________________________________
dense_2_1_conv2D (Conv2D)            (None, 128, 128, 16)      27648     activation_13[0][0]      
__________________________________________________________________________________________________
dropout_10 (Dropout)                 (None, 128, 128, 16)      0         dense_2_1_conv2D[0][0]   
__________________________________________________________________________________________________
concatenate_10 (Concatenate)         (None, 128, 128, 208)     0         concatenate_9[0][0]      
                                                                         dropout_10[0][0]         
__________________________________________________________________________________________________
dense_2_2_bn (BatchNormalization)    (None, 128, 128, 208)     832       concatenate_10[0][0]     
__________________________________________________________________________________________________
activation_14 (Activation)           (None, 128, 128, 208)     0         dense_2_2_bn[0][0]       
__________________________________________________________________________________________________
dense_2_2_conv2D (Conv2D)            (None, 128, 128, 16)      29952     activation_14[0][0]      
__________________________________________________________________________________________________
dropout_11 (Dropout)                 (None, 128, 128, 16)      0         dense_2_2_conv2D[0][0]   
__________________________________________________________________________________________________
concatenate_11 (Concatenate)         (None, 128, 128, 224)     0         concatenate_10[0][0]     
                                                                         dropout_11[0][0]         
__________________________________________________________________________________________________
dense_2_3_bn (BatchNormalization)    (None, 128, 128, 224)     896       concatenate_11[0][0]     
__________________________________________________________________________________________________
activation_15 (Activation)           (None, 128, 128, 224)     0         dense_2_3_bn[0][0]       
__________________________________________________________________________________________________
dense_2_3_conv2D (Conv2D)            (None, 128, 128, 16)      32256     activation_15[0][0]      
__________________________________________________________________________________________________
dropout_12 (Dropout)                 (None, 128, 128, 16)      0         dense_2_3_conv2D[0][0]   
__________________________________________________________________________________________________
concatenate_12 (Concatenate)         (None, 128, 128, 240)     0         concatenate_11[0][0]     
                                                                         dropout_12[0][0]         
__________________________________________________________________________________________________
tr_2_bn (BatchNormalization)         (None, 128, 128, 240)     960       concatenate_12[0][0]     
__________________________________________________________________________________________________
activation_16 (Activation)           (None, 128, 128, 240)     0         tr_2_bn[0][0]            
__________________________________________________________________________________________________
tr_2_conv2D (Conv2D)                 (None, 128, 128, 240)     57600     activation_16[0][0]      
__________________________________________________________________________________________________
max_pooling2d_3 (MaxPooling2D)       (None, 64, 64, 240)       0         tr_2_conv2D[0][0]        
__________________________________________________________________________________________________
dense_3_0_bn (BatchNormalization)    (None, 64, 64, 240)       960       max_pooling2d_3[0][0]    
__________________________________________________________________________________________________
activation_17 (Activation)           (None, 64, 64, 240)       0         dense_3_0_bn[0][0]       
__________________________________________________________________________________________________
dense_3_0_conv2D (Conv2D)            (None, 64, 64, 16)        34560     activation_17[0][0]      
__________________________________________________________________________________________________
dropout_13 (Dropout)                 (None, 64, 64, 16)        0         dense_3_0_conv2D[0][0]   
__________________________________________________________________________________________________
concatenate_13 (Concatenate)         (None, 64, 64, 256)       0         max_pooling2d_3[0][0]    
                                                                         dropout_13[0][0]         
__________________________________________________________________________________________________
dense_3_1_bn (BatchNormalization)    (None, 64, 64, 256)       1024      concatenate_13[0][0]     
__________________________________________________________________________________________________
activation_18 (Activation)           (None, 64, 64, 256)       0         dense_3_1_bn[0][0]       
__________________________________________________________________________________________________
dense_3_1_conv2D (Conv2D)            (None, 64, 64, 16)        36864     activation_18[0][0]      
__________________________________________________________________________________________________
dropout_14 (Dropout)                 (None, 64, 64, 16)        0         dense_3_1_conv2D[0][0]   
__________________________________________________________________________________________________
concatenate_14 (Concatenate)         (None, 64, 64, 272)       0         concatenate_13[0][0]     
                                                                         dropout_14[0][0]         
__________________________________________________________________________________________________
dense_3_2_bn (BatchNormalization)    (None, 64, 64, 272)       1088      concatenate_14[0][0]     
__________________________________________________________________________________________________
activation_19 (Activation)           (None, 64, 64, 272)       0         dense_3_2_bn[0][0]       
__________________________________________________________________________________________________
dense_3_2_conv2D (Conv2D)            (None, 64, 64, 16)        39168     activation_19[0][0]      
__________________________________________________________________________________________________
dropout_15 (Dropout)                 (None, 64, 64, 16)        0         dense_3_2_conv2D[0][0]   
__________________________________________________________________________________________________
concatenate_15 (Concatenate)         (None, 64, 64, 288)       0         concatenate_14[0][0]     
                                                                         dropout_15[0][0]         
__________________________________________________________________________________________________
dense_3_3_bn (BatchNormalization)    (None, 64, 64, 288)       1152      concatenate_15[0][0]     
__________________________________________________________________________________________________
activation_20 (Activation)           (None, 64, 64, 288)       0         dense_3_3_bn[0][0]       
__________________________________________________________________________________________________
dense_3_3_conv2D (Conv2D)            (None, 64, 64, 16)        41472     activation_20[0][0]      
__________________________________________________________________________________________________
dropout_16 (Dropout)                 (None, 64, 64, 16)        0         dense_3_3_conv2D[0][0]   
__________________________________________________________________________________________________
concatenate_16 (Concatenate)         (None, 64, 64, 304)       0         concatenate_15[0][0]     
                                                                         dropout_16[0][0]         
__________________________________________________________________________________________________
tr_3_bn (BatchNormalization)         (None, 64, 64, 304)       1216      concatenate_16[0][0]     
__________________________________________________________________________________________________
activation_21 (Activation)           (None, 64, 64, 304)       0         tr_3_bn[0][0]            
__________________________________________________________________________________________________
tr_3_conv2D (Conv2D)                 (None, 64, 64, 304)       92416     activation_21[0][0]      
__________________________________________________________________________________________________
max_pooling2d_4 (MaxPooling2D)       (None, 32, 32, 304)       0         tr_3_conv2D[0][0]        
__________________________________________________________________________________________________
dense_4_0_bn (BatchNormalization)    (None, 32, 32, 304)       1216      max_pooling2d_4[0][0]    
__________________________________________________________________________________________________
activation_22 (Activation)           (None, 32, 32, 304)       0         dense_4_0_bn[0][0]       
__________________________________________________________________________________________________
dense_4_0_conv2D (Conv2D)            (None, 32, 32, 16)        43776     activation_22[0][0]      
__________________________________________________________________________________________________
dropout_17 (Dropout)                 (None, 32, 32, 16)        0         dense_4_0_conv2D[0][0]   
__________________________________________________________________________________________________
concatenate_17 (Concatenate)         (None, 32, 32, 320)       0         max_pooling2d_4[0][0]    
                                                                         dropout_17[0][0]         
__________________________________________________________________________________________________
dense_4_1_bn (BatchNormalization)    (None, 32, 32, 320)       1280      concatenate_17[0][0]     
__________________________________________________________________________________________________
activation_23 (Activation)           (None, 32, 32, 320)       0         dense_4_1_bn[0][0]       
__________________________________________________________________________________________________
dense_4_1_conv2D (Conv2D)            (None, 32, 32, 16)        46080     activation_23[0][0]      
__________________________________________________________________________________________________
dropout_18 (Dropout)                 (None, 32, 32, 16)        0         dense_4_1_conv2D[0][0]   
__________________________________________________________________________________________________
concatenate_18 (Concatenate)         (None, 32, 32, 336)       0         concatenate_17[0][0]     
                                                                         dropout_18[0][0]         
__________________________________________________________________________________________________
dense_4_2_bn (BatchNormalization)    (None, 32, 32, 336)       1344      concatenate_18[0][0]     
__________________________________________________________________________________________________
activation_24 (Activation)           (None, 32, 32, 336)       0         dense_4_2_bn[0][0]       
__________________________________________________________________________________________________
dense_4_2_conv2D (Conv2D)            (None, 32, 32, 16)        48384     activation_24[0][0]      
__________________________________________________________________________________________________
dropout_19 (Dropout)                 (None, 32, 32, 16)        0         dense_4_2_conv2D[0][0]   
__________________________________________________________________________________________________
concatenate_19 (Concatenate)         (None, 32, 32, 352)       0         concatenate_18[0][0]     
                                                                         dropout_19[0][0]         
__________________________________________________________________________________________________
dense_4_3_bn (BatchNormalization)    (None, 32, 32, 352)       1408      concatenate_19[0][0]     
__________________________________________________________________________________________________
activation_25 (Activation)           (None, 32, 32, 352)       0         dense_4_3_bn[0][0]       
__________________________________________________________________________________________________
dense_4_3_conv2D (Conv2D)            (None, 32, 32, 16)        50688     activation_25[0][0]      
__________________________________________________________________________________________________
dropout_20 (Dropout)                 (None, 32, 32, 16)        0         dense_4_3_conv2D[0][0]   
__________________________________________________________________________________________________
concatenate_20 (Concatenate)         (None, 32, 32, 368)       0         concatenate_19[0][0]     
                                                                         dropout_20[0][0]         
__________________________________________________________________________________________________
tr_4_bn (BatchNormalization)         (None, 32, 32, 368)       1472      concatenate_20[0][0]     
__________________________________________________________________________________________________
activation_26 (Activation)           (None, 32, 32, 368)       0         tr_4_bn[0][0]            
__________________________________________________________________________________________________
tr_4_conv2D (Conv2D)                 (None, 32, 32, 368)       135424    activation_26[0][0]      
__________________________________________________________________________________________________
max_pooling2d_5 (MaxPooling2D)       (None, 16, 16, 368)       0         tr_4_conv2D[0][0]        
__________________________________________________________________________________________________
dense_5_0_bn (BatchNormalization)    (None, 16, 16, 368)       1472      max_pooling2d_5[0][0]    
__________________________________________________________________________________________________
activation_27 (Activation)           (None, 16, 16, 368)       0         dense_5_0_bn[0][0]       
__________________________________________________________________________________________________
dense_5_0_conv2D (Conv2D)            (None, 16, 16, 16)        52992     activation_27[0][0]      
__________________________________________________________________________________________________
dropout_21 (Dropout)                 (None, 16, 16, 16)        0         dense_5_0_conv2D[0][0]   
__________________________________________________________________________________________________
concatenate_21 (Concatenate)         (None, 16, 16, 384)       0         max_pooling2d_5[0][0]    
                                                                         dropout_21[0][0]         
__________________________________________________________________________________________________
dense_5_1_bn (BatchNormalization)    (None, 16, 16, 384)       1536      concatenate_21[0][0]     
__________________________________________________________________________________________________
activation_28 (Activation)           (None, 16, 16, 384)       0         dense_5_1_bn[0][0]       
__________________________________________________________________________________________________
dense_5_1_conv2D (Conv2D)            (None, 16, 16, 16)        55296     activation_28[0][0]      
__________________________________________________________________________________________________
dropout_22 (Dropout)                 (None, 16, 16, 16)        0         dense_5_1_conv2D[0][0]   
__________________________________________________________________________________________________
concatenate_22 (Concatenate)         (None, 16, 16, 400)       0         concatenate_21[0][0]     
                                                                         dropout_22[0][0]         
__________________________________________________________________________________________________
dense_5_2_bn (BatchNormalization)    (None, 16, 16, 400)       1600      concatenate_22[0][0]     
__________________________________________________________________________________________________
activation_29 (Activation)           (None, 16, 16, 400)       0         dense_5_2_bn[0][0]       
__________________________________________________________________________________________________
dense_5_2_conv2D (Conv2D)            (None, 16, 16, 16)        57600     activation_29[0][0]      
__________________________________________________________________________________________________
dropout_23 (Dropout)                 (None, 16, 16, 16)        0         dense_5_2_conv2D[0][0]   
__________________________________________________________________________________________________
concatenate_23 (Concatenate)         (None, 16, 16, 416)       0         concatenate_22[0][0]     
                                                                         dropout_23[0][0]         
__________________________________________________________________________________________________
dense_5_3_bn (BatchNormalization)    (None, 16, 16, 416)       1664      concatenate_23[0][0]     
__________________________________________________________________________________________________
activation_30 (Activation)           (None, 16, 16, 416)       0         dense_5_3_bn[0][0]       
__________________________________________________________________________________________________
dense_5_3_conv2D (Conv2D)            (None, 16, 16, 16)        59904     activation_30[0][0]      
__________________________________________________________________________________________________
dropout_24 (Dropout)                 (None, 16, 16, 16)        0         dense_5_3_conv2D[0][0]   
__________________________________________________________________________________________________
concatenate_25 (Concatenate)         (None, 16, 16, 64)        0         dropout_21[0][0]         
                                                                         dropout_22[0][0]         
                                                                         dropout_23[0][0]         
                                                                         dropout_24[0][0]         
__________________________________________________________________________________________________
tr_up_0_conv2DT (Conv2DTranspose)    (None, 32, 32, 64)        36928     concatenate_25[0][0]     
__________________________________________________________________________________________________
concatenate_26 (Concatenate)         (None, 32, 32, 432)       0         tr_up_0_conv2DT[0][0]    
                                                                         concatenate_20[0][0]     
__________________________________________________________________________________________________
dense_6_0_bn (BatchNormalization)    (None, 32, 32, 432)       1728      concatenate_26[0][0]     
__________________________________________________________________________________________________
activation_31 (Activation)           (None, 32, 32, 432)       0         dense_6_0_bn[0][0]       
__________________________________________________________________________________________________
dense_6_0_conv2D (Conv2D)            (None, 32, 32, 16)        62208     activation_31[0][0]      
__________________________________________________________________________________________________
dropout_25 (Dropout)                 (None, 32, 32, 16)        0         dense_6_0_conv2D[0][0]   
__________________________________________________________________________________________________
concatenate_27 (Concatenate)         (None, 32, 32, 448)       0         concatenate_26[0][0]     
                                                                         dropout_25[0][0]         
__________________________________________________________________________________________________
dense_6_1_bn (BatchNormalization)    (None, 32, 32, 448)       1792      concatenate_27[0][0]     
__________________________________________________________________________________________________
activation_32 (Activation)           (None, 32, 32, 448)       0         dense_6_1_bn[0][0]       
__________________________________________________________________________________________________
dense_6_1_conv2D (Conv2D)            (None, 32, 32, 16)        64512     activation_32[0][0]      
__________________________________________________________________________________________________
dropout_26 (Dropout)                 (None, 32, 32, 16)        0         dense_6_1_conv2D[0][0]   
__________________________________________________________________________________________________
concatenate_28 (Concatenate)         (None, 32, 32, 464)       0         concatenate_27[0][0]     
                                                                         dropout_26[0][0]         
__________________________________________________________________________________________________
dense_6_2_bn (BatchNormalization)    (None, 32, 32, 464)       1856      concatenate_28[0][0]     
__________________________________________________________________________________________________
activation_33 (Activation)           (None, 32, 32, 464)       0         dense_6_2_bn[0][0]       
__________________________________________________________________________________________________
dense_6_2_conv2D (Conv2D)            (None, 32, 32, 16)        66816     activation_33[0][0]      
__________________________________________________________________________________________________
dropout_27 (Dropout)                 (None, 32, 32, 16)        0         dense_6_2_conv2D[0][0]   
__________________________________________________________________________________________________
concatenate_29 (Concatenate)         (None, 32, 32, 480)       0         concatenate_28[0][0]     
                                                                         dropout_27[0][0]         
__________________________________________________________________________________________________
dense_6_3_bn (BatchNormalization)    (None, 32, 32, 480)       1920      concatenate_29[0][0]     
__________________________________________________________________________________________________
activation_34 (Activation)           (None, 32, 32, 480)       0         dense_6_3_bn[0][0]       
__________________________________________________________________________________________________
dense_6_3_conv2D (Conv2D)            (None, 32, 32, 16)        69120     activation_34[0][0]      
__________________________________________________________________________________________________
dropout_28 (Dropout)                 (None, 32, 32, 16)        0         dense_6_3_conv2D[0][0]   
__________________________________________________________________________________________________
concatenate_31 (Concatenate)         (None, 32, 32, 64)        0         dropout_25[0][0]         
                                                                         dropout_26[0][0]         
                                                                         dropout_27[0][0]         
                                                                         dropout_28[0][0]         
__________________________________________________________________________________________________
tr_up_1_conv2DT (Conv2DTranspose)    (None, 64, 64, 64)        36928     concatenate_31[0][0]     
__________________________________________________________________________________________________
concatenate_32 (Concatenate)         (None, 64, 64, 368)       0         tr_up_1_conv2DT[0][0]    
                                                                         concatenate_16[0][0]     
__________________________________________________________________________________________________
dense_7_0_bn (BatchNormalization)    (None, 64, 64, 368)       1472      concatenate_32[0][0]     
__________________________________________________________________________________________________
activation_35 (Activation)           (None, 64, 64, 368)       0         dense_7_0_bn[0][0]       
__________________________________________________________________________________________________
dense_7_0_conv2D (Conv2D)            (None, 64, 64, 16)        52992     activation_35[0][0]      
__________________________________________________________________________________________________
dropout_29 (Dropout)                 (None, 64, 64, 16)        0         dense_7_0_conv2D[0][0]   
__________________________________________________________________________________________________
concatenate_33 (Concatenate)         (None, 64, 64, 384)       0         concatenate_32[0][0]     
                                                                         dropout_29[0][0]         
__________________________________________________________________________________________________
dense_7_1_bn (BatchNormalization)    (None, 64, 64, 384)       1536      concatenate_33[0][0]     
__________________________________________________________________________________________________
activation_36 (Activation)           (None, 64, 64, 384)       0         dense_7_1_bn[0][0]       
__________________________________________________________________________________________________
dense_7_1_conv2D (Conv2D)            (None, 64, 64, 16)        55296     activation_36[0][0]      
__________________________________________________________________________________________________
dropout_30 (Dropout)                 (None, 64, 64, 16)        0         dense_7_1_conv2D[0][0]   
__________________________________________________________________________________________________
concatenate_34 (Concatenate)         (None, 64, 64, 400)       0         concatenate_33[0][0]     
                                                                         dropout_30[0][0]         
__________________________________________________________________________________________________
dense_7_2_bn (BatchNormalization)    (None, 64, 64, 400)       1600      concatenate_34[0][0]     
__________________________________________________________________________________________________
activation_37 (Activation)           (None, 64, 64, 400)       0         dense_7_2_bn[0][0]       
__________________________________________________________________________________________________
dense_7_2_conv2D (Conv2D)            (None, 64, 64, 16)        57600     activation_37[0][0]      
__________________________________________________________________________________________________
dropout_31 (Dropout)                 (None, 64, 64, 16)        0         dense_7_2_conv2D[0][0]   
__________________________________________________________________________________________________
concatenate_35 (Concatenate)         (None, 64, 64, 416)       0         concatenate_34[0][0]     
                                                                         dropout_31[0][0]         
__________________________________________________________________________________________________
dense_7_3_bn (BatchNormalization)    (None, 64, 64, 416)       1664      concatenate_35[0][0]     
__________________________________________________________________________________________________
activation_38 (Activation)           (None, 64, 64, 416)       0         dense_7_3_bn[0][0]       
__________________________________________________________________________________________________
dense_7_3_conv2D (Conv2D)            (None, 64, 64, 16)        59904     activation_38[0][0]      
__________________________________________________________________________________________________
dropout_32 (Dropout)                 (None, 64, 64, 16)        0         dense_7_3_conv2D[0][0]   
__________________________________________________________________________________________________
concatenate_37 (Concatenate)         (None, 64, 64, 64)        0         dropout_29[0][0]         
                                                                         dropout_30[0][0]         
                                                                         dropout_31[0][0]         
                                                                         dropout_32[0][0]         
__________________________________________________________________________________________________
tr_up_2_conv2DT (Conv2DTranspose)    (None, 128, 128, 64)      36928     concatenate_37[0][0]     
__________________________________________________________________________________________________
concatenate_38 (Concatenate)         (None, 128, 128, 304)     0         tr_up_2_conv2DT[0][0]    
                                                                         concatenate_12[0][0]     
__________________________________________________________________________________________________
dense_8_0_bn (BatchNormalization)    (None, 128, 128, 304)     1216      concatenate_38[0][0]     
__________________________________________________________________________________________________
activation_39 (Activation)           (None, 128, 128, 304)     0         dense_8_0_bn[0][0]       
__________________________________________________________________________________________________
dense_8_0_conv2D (Conv2D)            (None, 128, 128, 16)      43776     activation_39[0][0]      
__________________________________________________________________________________________________
dropout_33 (Dropout)                 (None, 128, 128, 16)      0         dense_8_0_conv2D[0][0]   
__________________________________________________________________________________________________
concatenate_39 (Concatenate)         (None, 128, 128, 320)     0         concatenate_38[0][0]     
                                                                         dropout_33[0][0]         
__________________________________________________________________________________________________
dense_8_1_bn (BatchNormalization)    (None, 128, 128, 320)     1280      concatenate_39[0][0]     
__________________________________________________________________________________________________
activation_40 (Activation)           (None, 128, 128, 320)     0         dense_8_1_bn[0][0]       
__________________________________________________________________________________________________
dense_8_1_conv2D (Conv2D)            (None, 128, 128, 16)      46080     activation_40[0][0]      
__________________________________________________________________________________________________
dropout_34 (Dropout)                 (None, 128, 128, 16)      0         dense_8_1_conv2D[0][0]   
__________________________________________________________________________________________________
concatenate_40 (Concatenate)         (None, 128, 128, 336)     0         concatenate_39[0][0]     
                                                                         dropout_34[0][0]         
__________________________________________________________________________________________________
dense_8_2_bn (BatchNormalization)    (None, 128, 128, 336)     1344      concatenate_40[0][0]     
__________________________________________________________________________________________________
activation_41 (Activation)           (None, 128, 128, 336)     0         dense_8_2_bn[0][0]       
__________________________________________________________________________________________________
dense_8_2_conv2D (Conv2D)            (None, 128, 128, 16)      48384     activation_41[0][0]      
__________________________________________________________________________________________________
dropout_35 (Dropout)                 (None, 128, 128, 16)      0         dense_8_2_conv2D[0][0]   
__________________________________________________________________________________________________
concatenate_41 (Concatenate)         (None, 128, 128, 352)     0         concatenate_40[0][0]     
                                                                         dropout_35[0][0]         
__________________________________________________________________________________________________
dense_8_3_bn (BatchNormalization)    (None, 128, 128, 352)     1408      concatenate_41[0][0]     
__________________________________________________________________________________________________
activation_42 (Activation)           (None, 128, 128, 352)     0         dense_8_3_bn[0][0]       
__________________________________________________________________________________________________
dense_8_3_conv2D (Conv2D)            (None, 128, 128, 16)      50688     activation_42[0][0]      
__________________________________________________________________________________________________
dropout_36 (Dropout)                 (None, 128, 128, 16)      0         dense_8_3_conv2D[0][0]   
__________________________________________________________________________________________________
concatenate_43 (Concatenate)         (None, 128, 128, 64)      0         dropout_33[0][0]         
                                                                         dropout_34[0][0]         
                                                                         dropout_35[0][0]         
                                                                         dropout_36[0][0]         
__________________________________________________________________________________________________
tr_up_3_conv2DT (Conv2DTranspose)    (None, 256, 256, 64)      36928     concatenate_43[0][0]     
__________________________________________________________________________________________________
concatenate_44 (Concatenate)         (None, 256, 256, 240)     0         tr_up_3_conv2DT[0][0]    
                                                                         concatenate_8[0][0]      
__________________________________________________________________________________________________
dense_9_0_bn (BatchNormalization)    (None, 256, 256, 240)     960       concatenate_44[0][0]     
__________________________________________________________________________________________________
activation_43 (Activation)           (None, 256, 256, 240)     0         dense_9_0_bn[0][0]       
__________________________________________________________________________________________________
dense_9_0_conv2D (Conv2D)            (None, 256, 256, 16)      34560     activation_43[0][0]      
__________________________________________________________________________________________________
dropout_37 (Dropout)                 (None, 256, 256, 16)      0         dense_9_0_conv2D[0][0]   
__________________________________________________________________________________________________
concatenate_45 (Concatenate)         (None, 256, 256, 256)     0         concatenate_44[0][0]     
                                                                         dropout_37[0][0]         
__________________________________________________________________________________________________
dense_9_1_bn (BatchNormalization)    (None, 256, 256, 256)     1024      concatenate_45[0][0]     
__________________________________________________________________________________________________
activation_44 (Activation)           (None, 256, 256, 256)     0         dense_9_1_bn[0][0]       
__________________________________________________________________________________________________
dense_9_1_conv2D (Conv2D)            (None, 256, 256, 16)      36864     activation_44[0][0]      
__________________________________________________________________________________________________
dropout_38 (Dropout)                 (None, 256, 256, 16)      0         dense_9_1_conv2D[0][0]   
__________________________________________________________________________________________________
concatenate_46 (Concatenate)         (None, 256, 256, 272)     0         concatenate_45[0][0]     
                                                                         dropout_38[0][0]         
__________________________________________________________________________________________________
dense_9_2_bn (BatchNormalization)    (None, 256, 256, 272)     1088      concatenate_46[0][0]     
__________________________________________________________________________________________________
activation_45 (Activation)           (None, 256, 256, 272)     0         dense_9_2_bn[0][0]       
__________________________________________________________________________________________________
dense_9_2_conv2D (Conv2D)            (None, 256, 256, 16)      39168     activation_45[0][0]      
__________________________________________________________________________________________________
dropout_39 (Dropout)                 (None, 256, 256, 16)      0         dense_9_2_conv2D[0][0]   
__________________________________________________________________________________________________
concatenate_47 (Concatenate)         (None, 256, 256, 288)     0         concatenate_46[0][0]     
                                                                         dropout_39[0][0]         
__________________________________________________________________________________________________
dense_9_3_bn (BatchNormalization)    (None, 256, 256, 288)     1152      concatenate_47[0][0]     
__________________________________________________________________________________________________
activation_46 (Activation)           (None, 256, 256, 288)     0         dense_9_3_bn[0][0]       
__________________________________________________________________________________________________
dense_9_3_conv2D (Conv2D)            (None, 256, 256, 16)      41472     activation_46[0][0]      
__________________________________________________________________________________________________
dropout_40 (Dropout)                 (None, 256, 256, 16)      0         dense_9_3_conv2D[0][0]   
__________________________________________________________________________________________________
concatenate_49 (Concatenate)         (None, 256, 256, 64)      0         dropout_37[0][0]         
                                                                         dropout_38[0][0]         
                                                                         dropout_39[0][0]         
                                                                         dropout_40[0][0]         
__________________________________________________________________________________________________
tr_up_4_conv2DT (Conv2DTranspose)    (None, 512, 512, 64)      36928     concatenate_49[0][0]     
__________________________________________________________________________________________________
concatenate_50 (Concatenate)         (None, 512, 512, 176)     0         tr_up_4_conv2DT[0][0]    
                                                                         concatenate_4[0][0]      
__________________________________________________________________________________________________
dense_10_0_bn (BatchNormalization)   (None, 512, 512, 176)     704       concatenate_50[0][0]     
__________________________________________________________________________________________________
activation_47 (Activation)           (None, 512, 512, 176)     0         dense_10_0_bn[0][0]      
__________________________________________________________________________________________________
dense_10_0_conv2D (Conv2D)           (None, 512, 512, 16)      25344     activation_47[0][0]      
__________________________________________________________________________________________________
dropout_41 (Dropout)                 (None, 512, 512, 16)      0         dense_10_0_conv2D[0][0]  
__________________________________________________________________________________________________
concatenate_51 (Concatenate)         (None, 512, 512, 192)     0         concatenate_50[0][0]     
                                                                         dropout_41[0][0]         
__________________________________________________________________________________________________
dense_10_1_bn (BatchNormalization)   (None, 512, 512, 192)     768       concatenate_51[0][0]     
__________________________________________________________________________________________________
activation_48 (Activation)           (None, 512, 512, 192)     0         dense_10_1_bn[0][0]      
__________________________________________________________________________________________________
dense_10_1_conv2D (Conv2D)           (None, 512, 512, 16)      27648     activation_48[0][0]      
__________________________________________________________________________________________________
dropout_42 (Dropout)                 (None, 512, 512, 16)      0         dense_10_1_conv2D[0][0]  
__________________________________________________________________________________________________
concatenate_52 (Concatenate)         (None, 512, 512, 208)     0         concatenate_51[0][0]     
                                                                         dropout_42[0][0]         
__________________________________________________________________________________________________
dense_10_2_bn (BatchNormalization)   (None, 512, 512, 208)     832       concatenate_52[0][0]     
__________________________________________________________________________________________________
activation_49 (Activation)           (None, 512, 512, 208)     0         dense_10_2_bn[0][0]      
__________________________________________________________________________________________________
dense_10_2_conv2D (Conv2D)           (None, 512, 512, 16)      29952     activation_49[0][0]      
__________________________________________________________________________________________________
dropout_43 (Dropout)                 (None, 512, 512, 16)      0         dense_10_2_conv2D[0][0]  
__________________________________________________________________________________________________
concatenate_53 (Concatenate)         (None, 512, 512, 224)     0         concatenate_52[0][0]     
                                                                         dropout_43[0][0]         
__________________________________________________________________________________________________
dense_10_3_bn (BatchNormalization)   (None, 512, 512, 224)     896       concatenate_53[0][0]     
__________________________________________________________________________________________________
activation_50 (Activation)           (None, 512, 512, 224)     0         dense_10_3_bn[0][0]      
__________________________________________________________________________________________________
dense_10_3_conv2D (Conv2D)           (None, 512, 512, 16)      32256     activation_50[0][0]      
__________________________________________________________________________________________________
dropout_44 (Dropout)                 (None, 512, 512, 16)      0         dense_10_3_conv2D[0][0]  
__________________________________________________________________________________________________
concatenate_54 (Concatenate)         (None, 512, 512, 240)     0         concatenate_53[0][0]     
                                                                         dropout_44[0][0]         
__________________________________________________________________________________________________
conv2d_1 (Conv2D)                    (None, 512, 512, 1)       240       concatenate_54[0][0]     
__________________________________________________________________________________________________
reshape_1 (Reshape)                  (None, 262144, 1)         0         conv2d_1[0][0]           
__________________________________________________________________________________________________
activation_51 (Activation)           (None, 262144, 1)         0         reshape_1[0][0]          
__________________________________________________________________________________________________
reshape_2 (Reshape)                  (None, 512, 512, 1)       0         activation_51[0][0]      
==================================================================================================
Total params: 2,314,208
Trainable params: 2,287,456
Non-trainable params: 26,752
__________________________________________________________________________________________________
Testing... This will take some time...
1/1 [==============================] - 4s 4s/step                                                                     | 0/16 [00:00<?, ?it/s]
…
