…
dim is deprecated, use axis instead
WARNING:tensorflow:From /home/tomoharu/forGCE/capsule_layers.py:384: calling norm (from tensorflow.python.ops.linalg_ops) with keep_dims is deprecated and will be removed in a future version.
Instructions for updating:
keep_dims is deprecated, use keepdims instead
__________________________________________________________________________________________________
Layer (type)                         Output Shape              Param #   Connected to             
==================================================================================================
input_1 (InputLayer)                 (None, 512, 512, 1)       0                                  
__________________________________________________________________________________________________
conv1 (Conv2D)                       (None, 512, 512, 16)      416       input_1[0][0]            
__________________________________________________________________________________________________
reshape_1 (Reshape)                  (None, 512, 512, 1, 16)   0         conv1[0][0]              
__________________________________________________________________________________________________
primarycaps (ConvCapsuleLayer)       (None, 256, 256, 2, 16)   12832     reshape_1[0][0]          
__________________________________________________________________________________________________
conv_cap_2_1 (ConvCapsuleLayer)      (None, 256, 256, 4, 16)   25664     primarycaps[0][0]        
__________________________________________________________________________________________________
conv_cap_2_2 (ConvCapsuleLayer)      (None, 128, 128, 4, 32)   51328     conv_cap_2_1[0][0]       
__________________________________________________________________________________________________
conv_cap_3_1 (ConvCapsuleLayer)      (None, 128, 128, 8, 32)   205056    conv_cap_2_2[0][0]       
__________________________________________________________________________________________________
conv_cap_3_2 (ConvCapsuleLayer)      (None, 64, 64, 8, 64)     410112    conv_cap_3_1[0][0]       
__________________________________________________________________________________________________
conv_cap_4_1 (ConvCapsuleLayer)      (None, 64, 64, 8, 32)     409856    conv_cap_3_2[0][0]       
__________________________________________________________________________________________________
deconv_cap_1_1 (DeconvCapsuleLayer)  (None, 128, 128, 8, 32)   131328    conv_cap_4_1[0][0]       
__________________________________________________________________________________________________
up_1 (Concatenate)                   (None, 128, 128, 16, 32)  0         deconv_cap_1_1[0][0]     
                                                                         conv_cap_3_1[0][0]       
__________________________________________________________________________________________________
deconv_cap_1_2 (ConvCapsuleLayer)    (None, 128, 128, 4, 32)   102528    up_1[0][0]               
__________________________________________________________________________________________________
deconv_cap_2_1 (DeconvCapsuleLayer)  (None, 256, 256, 4, 16)   32832     deconv_cap_1_2[0][0]     
__________________________________________________________________________________________________
up_2 (Concatenate)                   (None, 256, 256, 8, 16)   0         deconv_cap_2_1[0][0]     
                                                                         conv_cap_2_1[0][0]       
__________________________________________________________________________________________________
deconv_cap_2_2 (ConvCapsuleLayer)    (None, 256, 256, 4, 16)   25664     up_2[0][0]               
__________________________________________________________________________________________________
deconv_cap_3_1 (DeconvCapsuleLayer)  (None, 512, 512, 2, 16)   8224      deconv_cap_2_2[0][0]     
__________________________________________________________________________________________________
up_3 (Concatenate)                   (None, 512, 512, 3, 16)   0         deconv_cap_3_1[0][0]     
                                                                         reshape_1[0][0]          
__________________________________________________________________________________________________
seg_caps (ConvCapsuleLayer)          (None, 512, 512, 1, 16)   272       up_3[0][0]               
__________________________________________________________________________________________________
input_2 (InputLayer)                 (None, 512, 512, 1)       0                                  
__________________________________________________________________________________________________
mask_1 (Mask)                        (None, 512, 512, 1, 16)   0         seg_caps[0][0]           
                                                                         input_2[0][0]            
__________________________________________________________________________________________________
reshape_2 (Reshape)                  (None, 512, 512, 16)      0         mask_1[0][0]             
__________________________________________________________________________________________________
recon_1 (Conv2D)                     (None, 512, 512, 64)      1088      reshape_2[0][0]          
__________________________________________________________________________________________________
recon_2 (Conv2D)                     (None, 512, 512, 128)     8320      recon_1[0][0]            
__________________________________________________________________________________________________
out_seg (Length)                     (None, 512, 512, 1)       0         seg_caps[0][0]           
__________________________________________________________________________________________________
out_recon (Conv2D)                   (None, 512, 512, 1)       129       recon_2[0][0]            
==================================================================================================
Total params: 1,425,649
Trainable params: 1,425,649
Non-trainable params: 0
__________________________________________________________________________________________________
2019-02-13 12:35:57.420077: I tensorflow/core/platform/cpu_feature_guard.cc:141] Your CPU supports instructions that this TensorFlow binary was not compiled to use: AVX2 FMA
…
2019-02-13 14:05:28.678699: I tensorflow/core/common_runtime/gpu/gpu_device.cc:1115] Created TensorFlow device (/job:localhost/replica:0/task:0/device:GPU:0 with 15129 MB memory) -> physical GPU (device: 0, name: Tesla P100-PCIE-16GB, pci bus id: 0000:00:04.0, compute capability: 6.0)
__________________________________________________________________________________________________
Layer (type)                         Output Shape              Param #   Connected to             
==================================================================================================
input_1 (InputLayer)                 (None, 512, 512, 1)       0                                  
__________________________________________________________________________________________________
conv1 (Conv2D)                       (None, 512, 512, 16)      416       input_1[0][0]            
__________________________________________________________________________________________________
reshape_1 (Reshape)                  (None, 512, 512, 1, 16)   0         conv1[0][0]              
__________________________________________________________________________________________________
primarycaps (ConvCapsuleLayer)       (None, 256, 256, 2, 16)   12832     reshape_1[0][0]          
__________________________________________________________________________________________________
conv_cap_2_1 (ConvCapsuleLayer)      (None, 256, 256, 4, 16)   25664     primarycaps[0][0]        
__________________________________________________________________________________________________
conv_cap_2_2 (ConvCapsuleLayer)      (None, 128, 128, 4, 32)   51328     conv_cap_2_1[0][0]       
__________________________________________________________________________________________________
conv_cap_3_1 (ConvCapsuleLayer)      (None, 128, 128, 8, 32)   205056    conv_cap_2_2[0][0]       
__________________________________________________________________________________________________
conv_cap_3_2 (ConvCapsuleLayer)      (None, 64, 64, 8, 64)     410112    conv_cap_3_1[0][0]       
__________________________________________________________________________________________________
conv_cap_4_1 (ConvCapsuleLayer)      (None, 64, 64, 8, 32)     409856    conv_cap_3_2[0][0]       
__________________________________________________________________________________________________
deconv_cap_1_1 (DeconvCapsuleLayer)  (None, 128, 128, 8, 32)   131328    conv_cap_4_1[0][0]       
__________________________________________________________________________________________________
up_1 (Concatenate)                   (None, 128, 128, 16, 32)  0         deconv_cap_1_1[0][0]     
                                                                         conv_cap_3_1[0][0]       
__________________________________________________________________________________________________
deconv_cap_1_2 (ConvCapsuleLayer)    (None, 128, 128, 4, 32)   102528    up_1[0][0]               
__________________________________________________________________________________________________
deconv_cap_2_1 (DeconvCapsuleLayer)  (None, 256, 256, 4, 16)   32832     deconv_cap_1_2[0][0]     
__________________________________________________________________________________________________
up_2 (Concatenate)                   (None, 256, 256, 8, 16)   0         deconv_cap_2_1[0][0]     
                                                                         conv_cap_2_1[0][0]       
__________________________________________________________________________________________________
deconv_cap_2_2 (ConvCapsuleLayer)    (None, 256, 256, 4, 16)   25664     up_2[0][0]               
__________________________________________________________________________________________________
deconv_cap_3_1 (DeconvCapsuleLayer)  (None, 512, 512, 2, 16)   8224      deconv_cap_2_2[0][0]     
__________________________________________________________________________________________________
up_3 (Concatenate)                   (None, 512, 512, 3, 16)   0         deconv_cap_3_1[0][0]     
                                                                         reshape_1[0][0]          
__________________________________________________________________________________________________
seg_caps (ConvCapsuleLayer)          (None, 512, 512, 1, 16)   272       up_3[0][0]               
__________________________________________________________________________________________________
mask_2 (Mask)                        (None, 512, 512, 1, 16)   0         seg_caps[0][0]           
__________________________________________________________________________________________________
reshape_3 (Reshape)                  (None, 512, 512, 16)      0         mask_2[0][0]             
__________________________________________________________________________________________________
recon_1 (Conv2D)                     (None, 512, 512, 64)      1088      reshape_3[0][0]          
__________________________________________________________________________________________________
recon_2 (Conv2D)                     (None, 512, 512, 128)     8320      recon_1[0][0]            
__________________________________________________________________________________________________
out_seg (Length)                     (None, 512, 512, 1)       0         seg_caps[0][0]           
__________________________________________________________________________________________________
out_recon (Conv2D)                   (None, 512, 512, 1)       129       recon_2[0][0]            
==================================================================================================
Total params: 1,425,649
Trainable params: 1,425,649
Non-trainable params: 0
__________________________________________________________________________________________________
Testing... This will take some time...
1/1 [==============================] - 2s 2s/step                                                                     | 0/16 [00:00<?, ?it/s]
…
